{"format": "layers-model", "generatedBy": "keras v3.9.2", "convertedBy": "TensorFlow.js Converter v4.22.0", "modelTopology": {"keras_version": "3.9.2", "backend": "tensorflow", "model_config": {"class_name": "Functional", "config": {"name": "ResNet152", "trainable": true, "layers": [{"class_name": "InputLayer", "config": {"batch_shape": [null, 128, 128, 3], "dtype": "float32", "sparse": false, "ragged": false, "name": "input_layer_1"}, "name": "input_layer_1", "inbound_nodes": []}, {"class_name": "BatchNormalization", "config": {"name": "bn_data", "trainable": true, "dtype": {"module": "keras", "class_name": "DTypePolicy", "config": {"name": "float32"}, "registered_name": null}, "axis": -1, "momentum": 0.99, "epsilon": 0.001, "center": true, "scale": true, "beta_initializer": {"module": "keras.initializers", "class_name": "Zeros", "config": {}, "registered_name": null}, "gamma_initializer": {"module": "keras.initializers", "class_name": "Ones", "config": {}, "registered_name": null}, "moving_mean_initializer": {"module": "keras.initializers", "class_name": "Zeros", "config": {}, "registered_name": null}, "moving_variance_initializer": {"module": "keras.initializers", "class_name": "Ones", "config": {}, "registered_name": null}, "beta_regularizer": null, "gamma_regularizer": null, "beta_constraint": null, "gamma_constraint": null, "synchronized": false}, "name": "bn_data", "inbound_nodes": [{"args": [{"class_name": "__keras_tensor__", "config": {"shape": [null, 128, 128, 3], "dtype": "float32", "keras_history": ["input_layer_1", 0, 0]}}], "kwargs": {"mask": null}}]}, {"class_name": "ZeroPadding2D", "config": {"name": "zero_padding2d_init", "trainable": true, "dtype": {"module": "keras", "class_name": "DTypePolicy", "config": {"name": "float32"}, "registered_name": null}, "padding": [[3, 3], [3, 3]], "data_format": "channels_last"}, "name": "zero_padding2d_init", "inbound_nodes": [{"args": [{"class_name": "__keras_tensor__", "config": {"shape": [null, 128, 128, 3], "dtype": "float32", "keras_history": ["bn_data", 0, 0]}}], "kwargs": {}}]}, {"class_name": "Conv2D", "config": {"name": "conv0", "trainable": true, "dtype": {"module": "keras", "class_name": "DTypePolicy", "config": {"name": "float32"}, "registered_name": null}, "filters": 64, "kernel_size": [7, 7], "strides": [2, 2], "padding": "valid", "data_format": "channels_last", "dilation_rate": [1, 1], "groups": 1, "activation": "linear", "use_bias": false, "kernel_initializer": {"module": "keras.initializers", "class_name": "GlorotUniform", "config": {"seed": null}, "registered_name": null}, "bias_initializer": {"module": "keras.initializers", "class_name": "Zeros", "config": {}, "registered_name": null}, "kernel_regularizer": null, "bias_regularizer": null, "activity_regularizer": null, "kernel_constraint": null, "bias_constraint": null}, "name": "conv0", "inbound_nodes": [{"args": [{"class_name": "__keras_tensor__", "config": {"shape": [null, 134, 134, 3], "dtype": "float32", "keras_history": ["zero_padding2d_init", 0, 0]}}], "kwargs": {}}]}, {"class_name": "BatchNormalization", "config": {"name": "bn0", "trainable": true, "dtype": {"module": "keras", "class_name": "DTypePolicy", "config": {"name": "float32"}, "registered_name": null}, "axis": -1, "momentum": 0.99, "epsilon": 0.001, "center": true, "scale": true, "beta_initializer": {"module": "keras.initializers", "class_name": "Zeros", "config": {}, "registered_name": null}, "gamma_initializer": {"module": "keras.initializers", "class_name": "Ones", "config": {}, "registered_name": null}, "moving_mean_initializer": {"module": "keras.initializers", "class_name": "Zeros", "config": {}, "registered_name": null}, "moving_variance_initializer": {"module": "keras.initializers", "class_name": "Ones", "config": {}, "registered_name": null}, "beta_regularizer": null, "gamma_regularizer": null, "beta_constraint": null, "gamma_constraint": null, "synchronized": false}, "name": "bn0", "inbound_nodes": [{"args": [{"class_name": "__keras_tensor__", "config": {"shape": [null, 64, 64, 64], "dtype": "float32", "keras_history": ["conv0", 0, 0]}}], "kwargs": {"mask": null}}]}, {"class_name": "Activation", "config": {"name": "relu0", "trainable": true, "dtype": {"module": "keras", "class_name": "DTypePolicy", "config": {"name": "float32"}, "registered_name": null}, "activation": "relu"}, "name": "relu0", "inbound_nodes": [{"args": [{"class_name": "__keras_tensor__", "config": {"shape": [null, 64, 64, 64], "dtype": "float32", "keras_history": ["bn0", 0, 0]}}], "kwargs": {}}]}, {"class_name": "ZeroPadding2D", "config": {"name": "zero_padding2d_pool", "trainable": true, "dtype": {"module": "keras", "class_name": "DTypePolicy", "config": {"name": "float32"}, "registered_name": null}, "padding": [[1, 1], [1, 1]], "data_format": "channels_last"}, "name": "zero_padding2d_pool", "inbound_nodes": [{"args": [{"class_name": "__keras_tensor__", "config": {"shape": [null, 64, 64, 64], "dtype": "float32", "keras_history": ["relu0", 0, 0]}}], "kwargs": {}}]}, {"class_name": "MaxPooling2D", "config": {"name": "pooling0", "trainable": true, "dtype": {"module": "keras", "class_name": "DTypePolicy", "config": {"name": "float32"}, "registered_name": null}, "pool_size": [3, 3], "padding": "valid", "strides": [2, 2], "data_format": "channels_last"}, "name": "pooling0", "inbound_nodes": [{"args": [{"class_name": "__keras_tensor__", "config": {"shape": [null, 66, 66, 64], "dtype": "float32", "keras_history": ["zero_padding2d_pool", 0, 0]}}], "kwargs": {}}]}, {"class_name": "BatchNormalization", "config": {"name": "stage1_unit1_bn1", "trainable": true, "dtype": {"module": "keras", "class_name": "DTypePolicy", "config": {"name": "float32"}, "registered_name": null}, "axis": -1, "momentum": 0.99, "epsilon": 0.001, "center": true, "scale": true, "beta_initializer": {"module": "keras.initializers", "class_name": "Zeros", "config": {}, "registered_name": null}, "gamma_initializer": {"module": "keras.initializers", "class_name": "Ones", "config": {}, "registered_name": null}, "moving_mean_initializer": {"module": "keras.initializers", "class_name": "Zeros", "config": {}, "registered_name": null}, "moving_variance_initializer": {"module": "keras.initializers", "class_name": "Ones", "config": {}, "registered_name": null}, "beta_regularizer": null, "gamma_regularizer": null, "beta_constraint": null, "gamma_constraint": null, "synchronized": false}, "name": "stage1_unit1_bn1", "inbound_nodes": [{"args": [{"class_name": "__keras_tensor__", "config": {"shape": [null, 32, 32, 64], "dtype": "float32", "keras_history": ["pooling0", 0, 0]}}], "kwargs": {"mask": null}}]}, {"class_name": "Activation", "config": {"name": "stage1_unit1_relu1", "trainable": true, "dtype": {"module": "keras", "class_name": "DTypePolicy", "config": {"name": "float32"}, "registered_name": null}, "activation": "relu"}, "name": "stage1_unit1_relu1", "inbound_nodes": [{"args": [{"class_name": "__keras_tensor__", "config": {"shape": [null, 32, 32, 64], "dtype": "float32", "keras_history": ["stage1_unit1_bn1", 0, 0]}}], "kwargs": {}}]}, {"class_name": "Conv2D", "config": {"name": "stage1_unit1_conv1", "trainable": true, "dtype": {"module": "keras", "class_name": "DTypePolicy", "config": {"name": "float32"}, "registered_name": null}, "filters": 64, "kernel_size": [1, 1], "strides": [1, 1], "padding": "valid", "data_format": "channels_last", "dilation_rate": [1, 1], "groups": 1, "activation": "linear", "use_bias": false, "kernel_initializer": {"module": "keras.initializers", "class_name": "GlorotUniform", "config": {"seed": null}, "registered_name": null}, "bias_initializer": {"module": "keras.initializers", "class_name": "Zeros", "config": {}, "registered_name": null}, "kernel_regularizer": null, "bias_regularizer": null, "activity_regularizer": null, "kernel_constraint": null, "bias_constraint": null}, "name": "stage1_unit1_conv1", "inbound_nodes": [{"args": [{"class_name": "__keras_tensor__", "config": {"shape": [null, 32, 32, 64], "dtype": "float32", "keras_history": ["stage1_unit1_relu1", 0, 0]}}], "kwargs": {}}]}, {"class_name": "BatchNormalization", "config": {"name": "stage1_unit1_bn2", "trainable": true, "dtype": {"module": "keras", "class_name": "DTypePolicy", "config": {"name": "float32"}, "registered_name": null}, "axis": -1, "momentum": 0.99, "epsilon": 0.001, "center": true, "scale": true, "beta_initializer": {"module": "keras.initializers", "class_name": "Zeros", "config": {}, "registered_name": null}, "gamma_initializer": {"module": "keras.initializers", "class_name": "Ones", "config": {}, "registered_name": null}, "moving_mean_initializer": {"module": "keras.initializers", "class_name": "Zeros", "config": {}, "registered_name": null}, "moving_variance_initializer": {"module": "keras.initializers", "class_name": "Ones", "config": {}, "registered_name": null}, "beta_regularizer": null, "gamma_regularizer": null, "beta_constraint": null, "gamma_constraint": null, "synchronized": false}, "name": "stage1_unit1_bn2", "inbound_nodes": [{"args": [{"class_name": "__keras_tensor__", "config": {"shape": [null, 32, 32, 64], "dtype": "float32", "keras_history": ["stage1_unit1_conv1", 0, 0]}}], "kwargs": {"mask": null}}]}, {"class_name": "Activation", "config": {"name": "stage1_unit1_relu2", "trainable": true, "dtype": {"module": "keras", "class_name": "DTypePolicy", "config": {"name": "float32"}, "registered_name": null}, "activation": "relu"}, "name": "stage1_unit1_relu2", "inbound_nodes": [{"args": [{"class_name": "__keras_tensor__", "config": {"shape": [null, 32, 32, 64], "dtype": "float32", "keras_history": ["stage1_unit1_bn2", 0, 0]}}], "kwargs": {}}]}, {"class_name": "ZeroPadding2D", "config": {"name": "zero_padding2d_50", "trainable": true, "dtype": {"module": "keras", "class_name": "DTypePolicy", "config": {"name": "float32"}, "registered_name": null}, "padding": [[1, 1], [1, 1]], "data_format": "channels_last"}, "name": "zero_padding2d_50", "inbound_nodes": [{"args": [{"class_name": "__keras_tensor__", "config": {"shape": [null, 32, 32, 64], "dtype": "float32", "keras_history": ["stage1_unit1_relu2", 0, 0]}}], "kwargs": {}}]}, {"class_name": "Conv2D", "config": {"name": "stage1_unit1_conv2", "trainable": true, "dtype": {"module": "keras", "class_name": "DTypePolicy", "config": {"name": "float32"}, "registered_name": null}, "filters": 64, "kernel_size": [3, 3], "strides": [1, 1], "padding": "valid", "data_format": "channels_last", "dilation_rate": [1, 1], "groups": 1, "activation": "linear", "use_bias": false, "kernel_initializer": {"module": "keras.initializers", "class_name": "GlorotUniform", "config": {"seed": null}, "registered_name": null}, "bias_initializer": {"module": "keras.initializers", "class_name": "Zeros", "config": {}, "registered_name": null}, "kernel_regularizer": null, "bias_regularizer": null, "activity_regularizer": null, "kernel_constraint": null, "bias_constraint": null}, "name": "stage1_unit1_conv2", "inbound_nodes": [{"args": [{"class_name": "__keras_tensor__", "config": {"shape": [null, 34, 34, 64], "dtype": "float32", "keras_history": ["zero_padding2d_50", 0, 0]}}], "kwargs": {}}]}, {"class_name": "BatchNormalization", "config": {"name": "stage1_unit1_bn3", "trainable": true, "dtype": {"module": "keras", "class_name": "DTypePolicy", "config": {"name": "float32"}, "registered_name": null}, "axis": -1, "momentum": 0.99, "epsilon": 0.001, "center": true, "scale": true, "beta_initializer": {"module": "keras.initializers", "class_name": "Zeros", "config": {}, "registered_name": null}, "gamma_initializer": {"module": "keras.initializers", "class_name": "Ones", "config": {}, "registered_name": null}, "moving_mean_initializer": {"module": "keras.initializers", "class_name": "Zeros", "config": {}, "registered_name": null}, "moving_variance_initializer": {"module": "keras.initializers", "class_name": "Ones", "config": {}, "registered_name": null}, "beta_regularizer": null, "gamma_regularizer": null, "beta_constraint": null, "gamma_constraint": null, "synchronized": false}, "name": "stage1_unit1_bn3", "inbound_nodes": [{"args": [{"class_name": "__keras_tensor__", "config": {"shape": [null, 32, 32, 64], "dtype": "float32", "keras_history": ["stage1_unit1_conv2", 0, 0]}}], "kwargs": {"mask": null}}]}, {"class_name": "Activation", "config": {"name": "stage1_unit1_relu3", "trainable": true, "dtype": {"module": "keras", "class_name": "DTypePolicy", "config": {"name": "float32"}, "registered_name": null}, "activation": "relu"}, "name": "stage1_unit1_relu3", "inbound_nodes": [{"args": [{"class_name": "__keras_tensor__", "config": {"shape": [null, 32, 32, 64], "dtype": "float32", "keras_history": ["stage1_unit1_bn3", 0, 0]}}], "kwargs": {}}]}, {"class_name": "Conv2D", "config": {"name": "stage1_unit1_conv3", "trainable": true, "dtype": {"module": "keras", "class_name": "DTypePolicy", "config": {"name": "float32"}, "registered_name": null}, "filters": 256, "kernel_size": [1, 1], "strides": [1, 1], "padding": "valid", "data_format": "channels_last", "dilation_rate": [1, 1], "groups": 1, "activation": "linear", "use_bias": false, "kernel_initializer": {"module": "keras.initializers", "class_name": "GlorotUniform", "config": {"seed": null}, "registered_name": null}, "bias_initializer": {"module": "keras.initializers", "class_name": "Zeros", "config": {}, "registered_name": null}, "kernel_regularizer": null, "bias_regularizer": null, "activity_regularizer": null, "kernel_constraint": null, "bias_constraint": null}, "name": "stage1_unit1_conv3", "inbound_nodes": [{"args": [{"class_name": "__keras_tensor__", "config": {"shape": [null, 32, 32, 64], "dtype": "float32", "keras_history": ["stage1_unit1_relu3", 0, 0]}}], "kwargs": {}}]}, {"class_name": "Conv2D", "config": {"name": "stage1_unit1_sc", "trainable": true, "dtype": {"module": "keras", "class_name": "DTypePolicy", "config": {"name": "float32"}, "registered_name": null}, "filters": 256, "kernel_size": [1, 1], "strides": [1, 1], "padding": "valid", "data_format": "channels_last", "dilation_rate": [1, 1], "groups": 1, "activation": "linear", "use_bias": false, "kernel_initializer": {"module": "keras.initializers", "class_name": "GlorotUniform", "config": {"seed": null}, "registered_name": null}, "bias_initializer": {"module": "keras.initializers", "class_name": "Zeros", "config": {}, "registered_name": null}, "kernel_regularizer": null, "bias_regularizer": null, "activity_regularizer": null, "kernel_constraint": null, "bias_constraint": null}, "name": "stage1_unit1_sc", "inbound_nodes": [{"args": [{"class_name": "__keras_tensor__", "config": {"shape": [null, 32, 32, 64], "dtype": "float32", "keras_history": ["pooling0", 0, 0]}}], "kwargs": {}}]}, {"class_name": "Add", "config": {"name": "add_0", "trainable": true, "dtype": {"module": "keras", "class_name": "DTypePolicy", "config": {"name": "float32"}, "registered_name": null}}, "name": "add_0", "inbound_nodes": [{"args": [[{"class_name": "__keras_tensor__", "config": {"shape": [null, 32, 32, 256], "dtype": "float32", "keras_history": ["stage1_unit1_conv3", 0, 0]}}, {"class_name": "__keras_tensor__", "config": {"shape": [null, 32, 32, 256], "dtype": "float32", "keras_history": ["stage1_unit1_sc", 0, 0]}}]], "kwargs": {}}]}, {"class_name": "BatchNormalization", "config": {"name": "stage1_unit2_bn1", "trainable": true, "dtype": {"module": "keras", "class_name": "DTypePolicy", "config": {"name": "float32"}, "registered_name": null}, "axis": -1, "momentum": 0.99, "epsilon": 0.001, "center": true, "scale": true, "beta_initializer": {"module": "keras.initializers", "class_name": "Zeros", "config": {}, "registered_name": null}, "gamma_initializer": {"module": "keras.initializers", "class_name": "Ones", "config": {}, "registered_name": null}, "moving_mean_initializer": {"module": "keras.initializers", "class_name": "Zeros", "config": {}, "registered_name": null}, "moving_variance_initializer": {"module": "keras.initializers", "class_name": "Ones", "config": {}, "registered_name": null}, "beta_regularizer": null, "gamma_regularizer": null, "beta_constraint": null, "gamma_constraint": null, "synchronized": false}, "name": "stage1_unit2_bn1", "inbound_nodes": [{"args": [{"class_name": "__keras_tensor__", "config": {"shape": [null, 32, 32, 256], "dtype": "float32", "keras_history": ["add_0", 0, 0]}}], "kwargs": {"mask": null}}]}, {"class_name": "Activation", "config": {"name": "stage1_unit2_relu1", "trainable": true, "dtype": {"module": "keras", "class_name": "DTypePolicy", "config": {"name": "float32"}, "registered_name": null}, "activation": "relu"}, "name": "stage1_unit2_relu1", "inbound_nodes": [{"args": [{"class_name": "__keras_tensor__", "config": {"shape": [null, 32, 32, 256], "dtype": "float32", "keras_history": ["stage1_unit2_bn1", 0, 0]}}], "kwargs": {}}]}, {"class_name": "Conv2D", "config": {"name": "stage1_unit2_conv1", "trainable": true, "dtype": {"module": "keras", "class_name": "DTypePolicy", "config": {"name": "float32"}, "registered_name": null}, "filters": 64, "kernel_size": [1, 1], "strides": [1, 1], "padding": "valid", "data_format": "channels_last", "dilation_rate": [1, 1], "groups": 1, "activation": "linear", "use_bias": false, "kernel_initializer": {"module": "keras.initializers", "class_name": "GlorotUniform", "config": {"seed": null}, "registered_name": null}, "bias_initializer": {"module": "keras.initializers", "class_name": "Zeros", "config": {}, "registered_name": null}, "kernel_regularizer": null, "bias_regularizer": null, "activity_regularizer": null, "kernel_constraint": null, "bias_constraint": null}, "name": "stage1_unit2_conv1", "inbound_nodes": [{"args": [{"class_name": "__keras_tensor__", "config": {"shape": [null, 32, 32, 256], "dtype": "float32", "keras_history": ["stage1_unit2_relu1", 0, 0]}}], "kwargs": {}}]}, {"class_name": "BatchNormalization", "config": {"name": "stage1_unit2_bn2", "trainable": true, "dtype": {"module": "keras", "class_name": "DTypePolicy", "config": {"name": "float32"}, "registered_name": null}, "axis": -1, "momentum": 0.99, "epsilon": 0.001, "center": true, "scale": true, "beta_initializer": {"module": "keras.initializers", "class_name": "Zeros", "config": {}, "registered_name": null}, "gamma_initializer": {"module": "keras.initializers", "class_name": "Ones", "config": {}, "registered_name": null}, "moving_mean_initializer": {"module": "keras.initializers", "class_name": "Zeros", "config": {}, "registered_name": null}, "moving_variance_initializer": {"module": "keras.initializers", "class_name": "Ones", "config": {}, "registered_name": null}, "beta_regularizer": null, "gamma_regularizer": null, "beta_constraint": null, "gamma_constraint": null, "synchronized": false}, "name": "stage1_unit2_bn2", "inbound_nodes": [{"args": [{"class_name": "__keras_tensor__", "config": {"shape": [null, 32, 32, 64], "dtype": "float32", "keras_history": ["stage1_unit2_conv1", 0, 0]}}], "kwargs": {"mask": null}}]}, {"class_name": "Activation", "config": {"name": "stage1_unit2_relu2", "trainable": true, "dtype": {"module": "keras", "class_name": "DTypePolicy", "config": {"name": "float32"}, "registered_name": null}, "activation": "relu"}, "name": "stage1_unit2_relu2", "inbound_nodes": [{"args": [{"class_name": "__keras_tensor__", "config": {"shape": [null, 32, 32, 64], "dtype": "float32", "keras_history": ["stage1_unit2_bn2", 0, 0]}}], "kwargs": {}}]}, {"class_name": "ZeroPadding2D", "config": {"name": "zero_padding2d_51", "trainable": true, "dtype": {"module": "keras", "class_name": "DTypePolicy", "config": {"name": "float32"}, "registered_name": null}, "padding": [[1, 1], [1, 1]], "data_format": "channels_last"}, "name": "zero_padding2d_51", "inbound_nodes": [{"args": [{"class_name": "__keras_tensor__", "config": {"shape": [null, 32, 32, 64], "dtype": "float32", "keras_history": ["stage1_unit2_relu2", 0, 0]}}], "kwargs": {}}]}, {"class_name": "Conv2D", "config": {"name": "stage1_unit2_conv2", "trainable": true, "dtype": {"module": "keras", "class_name": "DTypePolicy", "config": {"name": "float32"}, "registered_name": null}, "filters": 64, "kernel_size": [3, 3], "strides": [1, 1], "padding": "valid", "data_format": "channels_last", "dilation_rate": [1, 1], "groups": 1, "activation": "linear", "use_bias": false, "kernel_initializer": {"module": "keras.initializers", "class_name": "GlorotUniform", "config": {"seed": null}, "registered_name": null}, "bias_initializer": {"module": "keras.initializers", "class_name": "Zeros", "config": {}, "registered_name": null}, "kernel_regularizer": null, "bias_regularizer": null, "activity_regularizer": null, "kernel_constraint": null, "bias_constraint": null}, "name": "stage1_unit2_conv2", "inbound_nodes": [{"args": [{"class_name": "__keras_tensor__", "config": {"shape": [null, 34, 34, 64], "dtype": "float32", "keras_history": ["zero_padding2d_51", 0, 0]}}], "kwargs": {}}]}, {"class_name": "BatchNormalization", "config": {"name": "stage1_unit2_bn3", "trainable": true, "dtype": {"module": "keras", "class_name": "DTypePolicy", "config": {"name": "float32"}, "registered_name": null}, "axis": -1, "momentum": 0.99, "epsilon": 0.001, "center": true, "scale": true, "beta_initializer": {"module": "keras.initializers", "class_name": "Zeros", "config": {}, "registered_name": null}, "gamma_initializer": {"module": "keras.initializers", "class_name": "Ones", "config": {}, "registered_name": null}, "moving_mean_initializer": {"module": "keras.initializers", "class_name": "Zeros", "config": {}, "registered_name": null}, "moving_variance_initializer": {"module": "keras.initializers", "class_name": "Ones", "config": {}, "registered_name": null}, "beta_regularizer": null, "gamma_regularizer": null, "beta_constraint": null, "gamma_constraint": null, "synchronized": false}, "name": "stage1_unit2_bn3", "inbound_nodes": [{"args": [{"class_name": "__keras_tensor__", "config": {"shape": [null, 32, 32, 64], "dtype": "float32", "keras_history": ["stage1_unit2_conv2", 0, 0]}}], "kwargs": {"mask": null}}]}, {"class_name": "Activation", "config": {"name": "stage1_unit2_relu3", "trainable": true, "dtype": {"module": "keras", "class_name": "DTypePolicy", "config": {"name": "float32"}, "registered_name": null}, "activation": "relu"}, "name": "stage1_unit2_relu3", "inbound_nodes": [{"args": [{"class_name": "__keras_tensor__", "config": {"shape": [null, 32, 32, 64], "dtype": "float32", "keras_history": ["stage1_unit2_bn3", 0, 0]}}], "kwargs": {}}]}, {"class_name": "Conv2D", "config": {"name": "stage1_unit2_conv3", "trainable": true, "dtype": {"module": "keras", "class_name": "DTypePolicy", "config": {"name": "float32"}, "registered_name": null}, "filters": 256, "kernel_size": [1, 1], "strides": [1, 1], "padding": "valid", "data_format": "channels_last", "dilation_rate": [1, 1], "groups": 1, "activation": "linear", "use_bias": false, "kernel_initializer": {"module": "keras.initializers", "class_name": "GlorotUniform", "config": {"seed": null}, "registered_name": null}, "bias_initializer": {"module": "keras.initializers", "class_name": "Zeros", "config": {}, "registered_name": null}, "kernel_regularizer": null, "bias_regularizer": null, "activity_regularizer": null, "kernel_constraint": null, "bias_constraint": null}, "name": "stage1_unit2_conv3", "inbound_nodes": [{"args": [{"class_name": "__keras_tensor__", "config": {"shape": [null, 32, 32, 64], "dtype": "float32", "keras_history": ["stage1_unit2_relu3", 0, 0]}}], "kwargs": {}}]}, {"class_name": "Add", "config": {"name": "add_1", "trainable": true, "dtype": {"module": "keras", "class_name": "DTypePolicy", "config": {"name": "float32"}, "registered_name": null}}, "name": "add_1", "inbound_nodes": [{"args": [[{"class_name": "__keras_tensor__", "config": {"shape": [null, 32, 32, 256], "dtype": "float32", "keras_history": ["stage1_unit2_conv3", 0, 0]}}, {"class_name": "__keras_tensor__", "config": {"shape": [null, 32, 32, 256], "dtype": "float32", "keras_history": ["add_0", 0, 0]}}]], "kwargs": {}}]}, {"class_name": "BatchNormalization", "config": {"name": "stage1_unit3_bn1", "trainable": true, "dtype": {"module": "keras", "class_name": "DTypePolicy", "config": {"name": "float32"}, "registered_name": null}, "axis": -1, "momentum": 0.99, "epsilon": 0.001, "center": true, "scale": true, "beta_initializer": {"module": "keras.initializers", "class_name": "Zeros", "config": {}, "registered_name": null}, "gamma_initializer": {"module": "keras.initializers", "class_name": "Ones", "config": {}, "registered_name": null}, "moving_mean_initializer": {"module": "keras.initializers", "class_name": "Zeros", "config": {}, "registered_name": null}, "moving_variance_initializer": {"module": "keras.initializers", "class_name": "Ones", "config": {}, "registered_name": null}, "beta_regularizer": null, "gamma_regularizer": null, "beta_constraint": null, "gamma_constraint": null, "synchronized": false}, "name": "stage1_unit3_bn1", "inbound_nodes": [{"args": [{"class_name": "__keras_tensor__", "config": {"shape": [null, 32, 32, 256], "dtype": "float32", "keras_history": ["add_1", 0, 0]}}], "kwargs": {"mask": null}}]}, {"class_name": "Activation", "config": {"name": "stage1_unit3_relu1", "trainable": true, "dtype": {"module": "keras", "class_name": "DTypePolicy", "config": {"name": "float32"}, "registered_name": null}, "activation": "relu"}, "name": "stage1_unit3_relu1", "inbound_nodes": [{"args": [{"class_name": "__keras_tensor__", "config": {"shape": [null, 32, 32, 256], "dtype": "float32", "keras_history": ["stage1_unit3_bn1", 0, 0]}}], "kwargs": {}}]}, {"class_name": "Conv2D", "config": {"name": "stage1_unit3_conv1", "trainable": true, "dtype": {"module": "keras", "class_name": "DTypePolicy", "config": {"name": "float32"}, "registered_name": null}, "filters": 64, "kernel_size": [1, 1], "strides": [1, 1], "padding": "valid", "data_format": "channels_last", "dilation_rate": [1, 1], "groups": 1, "activation": "linear", "use_bias": false, "kernel_initializer": {"module": "keras.initializers", "class_name": "GlorotUniform", "config": {"seed": null}, "registered_name": null}, "bias_initializer": {"module": "keras.initializers", "class_name": "Zeros", "config": {}, "registered_name": null}, "kernel_regularizer": null, "bias_regularizer": null, "activity_regularizer": null, "kernel_constraint": null, "bias_constraint": null}, "name": "stage1_unit3_conv1", "inbound_nodes": [{"args": [{"class_name": "__keras_tensor__", "config": {"shape": [null, 32, 32, 256], "dtype": "float32", "keras_history": ["stage1_unit3_relu1", 0, 0]}}], "kwargs": {}}]}, {"class_name": "BatchNormalization", "config": {"name": "stage1_unit3_bn2", "trainable": true, "dtype": {"module": "keras", "class_name": "DTypePolicy", "config": {"name": "float32"}, "registered_name": null}, "axis": -1, "momentum": 0.99, "epsilon": 0.001, "center": true, "scale": true, "beta_initializer": {"module": "keras.initializers", "class_name": "Zeros", "config": {}, "registered_name": null}, "gamma_initializer": {"module": "keras.initializers", "class_name": "Ones", "config": {}, "registered_name": null}, "moving_mean_initializer": {"module": "keras.initializers", "class_name": "Zeros", "config": {}, "registered_name": null}, "moving_variance_initializer": {"module": "keras.initializers", "class_name": "Ones", "config": {}, "registered_name": null}, "beta_regularizer": null, "gamma_regularizer": null, "beta_constraint": null, "gamma_constraint": null, "synchronized": false}, "name": "stage1_unit3_bn2", "inbound_nodes": [{"args": [{"class_name": "__keras_tensor__", "config": {"shape": [null, 32, 32, 64], "dtype": "float32", "keras_history": ["stage1_unit3_conv1", 0, 0]}}], "kwargs": {"mask": null}}]}, {"class_name": "Activation", "config": {"name": "stage1_unit3_relu2", "trainable": true, "dtype": {"module": "keras", "class_name": "DTypePolicy", "config": {"name": "float32"}, "registered_name": null}, "activation": "relu"}, "name": "stage1_unit3_relu2", "inbound_nodes": [{"args": [{"class_name": "__keras_tensor__", "config": {"shape": [null, 32, 32, 64], "dtype": "float32", "keras_history": ["stage1_unit3_bn2", 0, 0]}}], "kwargs": {}}]}, {"class_name": "ZeroPadding2D", "config": {"name": "zero_padding2d_52", "trainable": true, "dtype": {"module": "keras", "class_name": "DTypePolicy", "config": {"name": "float32"}, "registered_name": null}, "padding": [[1, 1], [1, 1]], "data_format": "channels_last"}, "name": "zero_padding2d_52", "inbound_nodes": [{"args": [{"class_name": "__keras_tensor__", "config": {"shape": [null, 32, 32, 64], "dtype": "float32", "keras_history": ["stage1_unit3_relu2", 0, 0]}}], "kwargs": {}}]}, {"class_name": "Conv2D", "config": {"name": "stage1_unit3_conv2", "trainable": true, "dtype": {"module": "keras", "class_name": "DTypePolicy", "config": {"name": "float32"}, "registered_name": null}, "filters": 64, "kernel_size": [3, 3], "strides": [1, 1], "padding": "valid", "data_format": "channels_last", "dilation_rate": [1, 1], "groups": 1, "activation": "linear", "use_bias": false, "kernel_initializer": {"module": "keras.initializers", "class_name": "GlorotUniform", "config": {"seed": null}, "registered_name": null}, "bias_initializer": {"module": "keras.initializers", "class_name": "Zeros", "config": {}, "registered_name": null}, "kernel_regularizer": null, "bias_regularizer": null, "activity_regularizer": null, "kernel_constraint": null, "bias_constraint": null}, "name": "stage1_unit3_conv2", "inbound_nodes": [{"args": [{"class_name": "__keras_tensor__", "config": {"shape": [null, 34, 34, 64], "dtype": "float32", "keras_history": ["zero_padding2d_52", 0, 0]}}], "kwargs": {}}]}, {"class_name": "BatchNormalization", "config": {"name": "stage1_unit3_bn3", "trainable": true, "dtype": {"module": "keras", "class_name": "DTypePolicy", "config": {"name": "float32"}, "registered_name": null}, "axis": -1, "momentum": 0.99, "epsilon": 0.001, "center": true, "scale": true, "beta_initializer": {"module": "keras.initializers", "class_name": "Zeros", "config": {}, "registered_name": null}, "gamma_initializer": {"module": "keras.initializers", "class_name": "Ones", "config": {}, "registered_name": null}, "moving_mean_initializer": {"module": "keras.initializers", "class_name": "Zeros", "config": {}, "registered_name": null}, "moving_variance_initializer": {"module": "keras.initializers", "class_name": "Ones", "config": {}, "registered_name": null}, "beta_regularizer": null, "gamma_regularizer": null, "beta_constraint": null, "gamma_constraint": null, "synchronized": false}, "name": "stage1_unit3_bn3", "inbound_nodes": [{"args": [{"class_name": "__keras_tensor__", "config": {"shape": [null, 32, 32, 64], "dtype": "float32", "keras_history": ["stage1_unit3_conv2", 0, 0]}}], "kwargs": {"mask": null}}]}, {"class_name": "Activation", "config": {"name": "stage1_unit3_relu3", "trainable": true, "dtype": {"module": "keras", "class_name": "DTypePolicy", "config": {"name": "float32"}, "registered_name": null}, "activation": "relu"}, "name": "stage1_unit3_relu3", "inbound_nodes": [{"args": [{"class_name": "__keras_tensor__", "config": {"shape": [null, 32, 32, 64], "dtype": "float32", "keras_history": ["stage1_unit3_bn3", 0, 0]}}], "kwargs": {}}]}, {"class_name": "Conv2D", "config": {"name": "stage1_unit3_conv3", "trainable": true, "dtype": {"module": "keras", "class_name": "DTypePolicy", "config": {"name": "float32"}, "registered_name": null}, "filters": 256, "kernel_size": [1, 1], "strides": [1, 1], "padding": "valid", "data_format": "channels_last", "dilation_rate": [1, 1], "groups": 1, "activation": "linear", "use_bias": false, "kernel_initializer": {"module": "keras.initializers", "class_name": "GlorotUniform", "config": {"seed": null}, "registered_name": null}, "bias_initializer": {"module": "keras.initializers", "class_name": "Zeros", "config": {}, "registered_name": null}, "kernel_regularizer": null, "bias_regularizer": null, "activity_regularizer": null, "kernel_constraint": null, "bias_constraint": null}, "name": "stage1_unit3_conv3", "inbound_nodes": [{"args": [{"class_name": "__keras_tensor__", "config": {"shape": [null, 32, 32, 64], "dtype": "float32", "keras_history": ["stage1_unit3_relu3", 0, 0]}}], "kwargs": {}}]}, {"class_name": "Add", "config": {"name": "add_2", "trainable": true, "dtype": {"module": "keras", "class_name": "DTypePolicy", "config": {"name": "float32"}, "registered_name": null}}, "name": "add_2", "inbound_nodes": [{"args": [[{"class_name": "__keras_tensor__", "config": {"shape": [null, 32, 32, 256], "dtype": "float32", "keras_history": ["stage1_unit3_conv3", 0, 0]}}, {"class_name": "__keras_tensor__", "config": {"shape": [null, 32, 32, 256], "dtype": "float32", "keras_history": ["add_1", 0, 0]}}]], "kwargs": {}}]}, {"class_name": "BatchNormalization", "config": {"name": "stage2_unit1_bn1", "trainable": true, "dtype": {"module": "keras", "class_name": "DTypePolicy", "config": {"name": "float32"}, "registered_name": null}, "axis": -1, "momentum": 0.99, "epsilon": 0.001, "center": true, "scale": true, "beta_initializer": {"module": "keras.initializers", "class_name": "Zeros", "config": {}, "registered_name": null}, "gamma_initializer": {"module": "keras.initializers", "class_name": "Ones", "config": {}, "registered_name": null}, "moving_mean_initializer": {"module": "keras.initializers", "class_name": "Zeros", "config": {}, "registered_name": null}, "moving_variance_initializer": {"module": "keras.initializers", "class_name": "Ones", "config": {}, "registered_name": null}, "beta_regularizer": null, "gamma_regularizer": null, "beta_constraint": null, "gamma_constraint": null, "synchronized": false}, "name": "stage2_unit1_bn1", "inbound_nodes": [{"args": [{"class_name": "__keras_tensor__", "config": {"shape": [null, 32, 32, 256], "dtype": "float32", "keras_history": ["add_2", 0, 0]}}], "kwargs": {"mask": null}}]}, {"class_name": "Activation", "config": {"name": "stage2_unit1_relu1", "trainable": true, "dtype": {"module": "keras", "class_name": "DTypePolicy", "config": {"name": "float32"}, "registered_name": null}, "activation": "relu"}, "name": "stage2_unit1_relu1", "inbound_nodes": [{"args": [{"class_name": "__keras_tensor__", "config": {"shape": [null, 32, 32, 256], "dtype": "float32", "keras_history": ["stage2_unit1_bn1", 0, 0]}}], "kwargs": {}}]}, {"class_name": "Conv2D", "config": {"name": "stage2_unit1_conv1", "trainable": true, "dtype": {"module": "keras", "class_name": "DTypePolicy", "config": {"name": "float32"}, "registered_name": null}, "filters": 128, "kernel_size": [1, 1], "strides": [2, 2], "padding": "valid", "data_format": "channels_last", "dilation_rate": [1, 1], "groups": 1, "activation": "linear", "use_bias": false, "kernel_initializer": {"module": "keras.initializers", "class_name": "GlorotUniform", "config": {"seed": null}, "registered_name": null}, "bias_initializer": {"module": "keras.initializers", "class_name": "Zeros", "config": {}, "registered_name": null}, "kernel_regularizer": null, "bias_regularizer": null, "activity_regularizer": null, "kernel_constraint": null, "bias_constraint": null}, "name": "stage2_unit1_conv1", "inbound_nodes": [{"args": [{"class_name": "__keras_tensor__", "config": {"shape": [null, 32, 32, 256], "dtype": "float32", "keras_history": ["stage2_unit1_relu1", 0, 0]}}], "kwargs": {}}]}, {"class_name": "BatchNormalization", "config": {"name": "stage2_unit1_bn2", "trainable": true, "dtype": {"module": "keras", "class_name": "DTypePolicy", "config": {"name": "float32"}, "registered_name": null}, "axis": -1, "momentum": 0.99, "epsilon": 0.001, "center": true, "scale": true, "beta_initializer": {"module": "keras.initializers", "class_name": "Zeros", "config": {}, "registered_name": null}, "gamma_initializer": {"module": "keras.initializers", "class_name": "Ones", "config": {}, "registered_name": null}, "moving_mean_initializer": {"module": "keras.initializers", "class_name": "Zeros", "config": {}, "registered_name": null}, "moving_variance_initializer": {"module": "keras.initializers", "class_name": "Ones", "config": {}, "registered_name": null}, "beta_regularizer": null, "gamma_regularizer": null, "beta_constraint": null, "gamma_constraint": null, "synchronized": false}, "name": "stage2_unit1_bn2", "inbound_nodes": [{"args": [{"class_name": "__keras_tensor__", "config": {"shape": [null, 16, 16, 128], "dtype": "float32", "keras_history": ["stage2_unit1_conv1", 0, 0]}}], "kwargs": {"mask": null}}]}, {"class_name": "Activation", "config": {"name": "stage2_unit1_relu2", "trainable": true, "dtype": {"module": "keras", "class_name": "DTypePolicy", "config": {"name": "float32"}, "registered_name": null}, "activation": "relu"}, "name": "stage2_unit1_relu2", "inbound_nodes": [{"args": [{"class_name": "__keras_tensor__", "config": {"shape": [null, 16, 16, 128], "dtype": "float32", "keras_history": ["stage2_unit1_bn2", 0, 0]}}], "kwargs": {}}]}, {"class_name": "ZeroPadding2D", "config": {"name": "zero_padding2d_53", "trainable": true, "dtype": {"module": "keras", "class_name": "DTypePolicy", "config": {"name": "float32"}, "registered_name": null}, "padding": [[1, 1], [1, 1]], "data_format": "channels_last"}, "name": "zero_padding2d_53", "inbound_nodes": [{"args": [{"class_name": "__keras_tensor__", "config": {"shape": [null, 16, 16, 128], "dtype": "float32", "keras_history": ["stage2_unit1_relu2", 0, 0]}}], "kwargs": {}}]}, {"class_name": "Conv2D", "config": {"name": "stage2_unit1_conv2", "trainable": true, "dtype": {"module": "keras", "class_name": "DTypePolicy", "config": {"name": "float32"}, "registered_name": null}, "filters": 128, "kernel_size": [3, 3], "strides": [1, 1], "padding": "valid", "data_format": "channels_last", "dilation_rate": [1, 1], "groups": 1, "activation": "linear", "use_bias": false, "kernel_initializer": {"module": "keras.initializers", "class_name": "GlorotUniform", "config": {"seed": null}, "registered_name": null}, "bias_initializer": {"module": "keras.initializers", "class_name": "Zeros", "config": {}, "registered_name": null}, "kernel_regularizer": null, "bias_regularizer": null, "activity_regularizer": null, "kernel_constraint": null, "bias_constraint": null}, "name": "stage2_unit1_conv2", "inbound_nodes": [{"args": [{"class_name": "__keras_tensor__", "config": {"shape": [null, 18, 18, 128], "dtype": "float32", "keras_history": ["zero_padding2d_53", 0, 0]}}], "kwargs": {}}]}, {"class_name": "BatchNormalization", "config": {"name": "stage2_unit1_bn3", "trainable": true, "dtype": {"module": "keras", "class_name": "DTypePolicy", "config": {"name": "float32"}, "registered_name": null}, "axis": -1, "momentum": 0.99, "epsilon": 0.001, "center": true, "scale": true, "beta_initializer": {"module": "keras.initializers", "class_name": "Zeros", "config": {}, "registered_name": null}, "gamma_initializer": {"module": "keras.initializers", "class_name": "Ones", "config": {}, "registered_name": null}, "moving_mean_initializer": {"module": "keras.initializers", "class_name": "Zeros", "config": {}, "registered_name": null}, "moving_variance_initializer": {"module": "keras.initializers", "class_name": "Ones", "config": {}, "registered_name": null}, "beta_regularizer": null, "gamma_regularizer": null, "beta_constraint": null, "gamma_constraint": null, "synchronized": false}, "name": "stage2_unit1_bn3", "inbound_nodes": [{"args": [{"class_name": "__keras_tensor__", "config": {"shape": [null, 16, 16, 128], "dtype": "float32", "keras_history": ["stage2_unit1_conv2", 0, 0]}}], "kwargs": {"mask": null}}]}, {"class_name": "Activation", "config": {"name": "stage2_unit1_relu3", "trainable": true, "dtype": {"module": "keras", "class_name": "DTypePolicy", "config": {"name": "float32"}, "registered_name": null}, "activation": "relu"}, "name": "stage2_unit1_relu3", "inbound_nodes": [{"args": [{"class_name": "__keras_tensor__", "config": {"shape": [null, 16, 16, 128], "dtype": "float32", "keras_history": ["stage2_unit1_bn3", 0, 0]}}], "kwargs": {}}]}, {"class_name": "Conv2D", "config": {"name": "stage2_unit1_conv3", "trainable": true, "dtype": {"module": "keras", "class_name": "DTypePolicy", "config": {"name": "float32"}, "registered_name": null}, "filters": 512, "kernel_size": [1, 1], "strides": [1, 1], "padding": "valid", "data_format": "channels_last", "dilation_rate": [1, 1], "groups": 1, "activation": "linear", "use_bias": false, "kernel_initializer": {"module": "keras.initializers", "class_name": "GlorotUniform", "config": {"seed": null}, "registered_name": null}, "bias_initializer": {"module": "keras.initializers", "class_name": "Zeros", "config": {}, "registered_name": null}, "kernel_regularizer": null, "bias_regularizer": null, "activity_regularizer": null, "kernel_constraint": null, "bias_constraint": null}, "name": "stage2_unit1_conv3", "inbound_nodes": [{"args": [{"class_name": "__keras_tensor__", "config": {"shape": [null, 16, 16, 128], "dtype": "float32", "keras_history": ["stage2_unit1_relu3", 0, 0]}}], "kwargs": {}}]}, {"class_name": "Conv2D", "config": {"name": "stage2_unit1_sc", "trainable": true, "dtype": {"module": "keras", "class_name": "DTypePolicy", "config": {"name": "float32"}, "registered_name": null}, "filters": 512, "kernel_size": [1, 1], "strides": [2, 2], "padding": "valid", "data_format": "channels_last", "dilation_rate": [1, 1], "groups": 1, "activation": "linear", "use_bias": false, "kernel_initializer": {"module": "keras.initializers", "class_name": "GlorotUniform", "config": {"seed": null}, "registered_name": null}, "bias_initializer": {"module": "keras.initializers", "class_name": "Zeros", "config": {}, "registered_name": null}, "kernel_regularizer": null, "bias_regularizer": null, "activity_regularizer": null, "kernel_constraint": null, "bias_constraint": null}, "name": "stage2_unit1_sc", "inbound_nodes": [{"args": [{"class_name": "__keras_tensor__", "config": {"shape": [null, 32, 32, 256], "dtype": "float32", "keras_history": ["add_2", 0, 0]}}], "kwargs": {}}]}, {"class_name": "Add", "config": {"name": "add_3", "trainable": true, "dtype": {"module": "keras", "class_name": "DTypePolicy", "config": {"name": "float32"}, "registered_name": null}}, "name": "add_3", "inbound_nodes": [{"args": [[{"class_name": "__keras_tensor__", "config": {"shape": [null, 16, 16, 512], "dtype": "float32", "keras_history": ["stage2_unit1_conv3", 0, 0]}}, {"class_name": "__keras_tensor__", "config": {"shape": [null, 16, 16, 512], "dtype": "float32", "keras_history": ["stage2_unit1_sc", 0, 0]}}]], "kwargs": {}}]}, {"class_name": "BatchNormalization", "config": {"name": "stage2_unit2_bn1", "trainable": true, "dtype": {"module": "keras", "class_name": "DTypePolicy", "config": {"name": "float32"}, "registered_name": null}, "axis": -1, "momentum": 0.99, "epsilon": 0.001, "center": true, "scale": true, "beta_initializer": {"module": "keras.initializers", "class_name": "Zeros", "config": {}, "registered_name": null}, "gamma_initializer": {"module": "keras.initializers", "class_name": "Ones", "config": {}, "registered_name": null}, "moving_mean_initializer": {"module": "keras.initializers", "class_name": "Zeros", "config": {}, "registered_name": null}, "moving_variance_initializer": {"module": "keras.initializers", "class_name": "Ones", "config": {}, "registered_name": null}, "beta_regularizer": null, "gamma_regularizer": null, "beta_constraint": null, "gamma_constraint": null, "synchronized": false}, "name": "stage2_unit2_bn1", "inbound_nodes": [{"args": [{"class_name": "__keras_tensor__", "config": {"shape": [null, 16, 16, 512], "dtype": "float32", "keras_history": ["add_3", 0, 0]}}], "kwargs": {"mask": null}}]}, {"class_name": "Activation", "config": {"name": "stage2_unit2_relu1", "trainable": true, "dtype": {"module": "keras", "class_name": "DTypePolicy", "config": {"name": "float32"}, "registered_name": null}, "activation": "relu"}, "name": "stage2_unit2_relu1", "inbound_nodes": [{"args": [{"class_name": "__keras_tensor__", "config": {"shape": [null, 16, 16, 512], "dtype": "float32", "keras_history": ["stage2_unit2_bn1", 0, 0]}}], "kwargs": {}}]}, {"class_name": "Conv2D", "config": {"name": "stage2_unit2_conv1", "trainable": true, "dtype": {"module": "keras", "class_name": "DTypePolicy", "config": {"name": "float32"}, "registered_name": null}, "filters": 128, "kernel_size": [1, 1], "strides": [1, 1], "padding": "valid", "data_format": "channels_last", "dilation_rate": [1, 1], "groups": 1, "activation": "linear", "use_bias": false, "kernel_initializer": {"module": "keras.initializers", "class_name": "GlorotUniform", "config": {"seed": null}, "registered_name": null}, "bias_initializer": {"module": "keras.initializers", "class_name": "Zeros", "config": {}, "registered_name": null}, "kernel_regularizer": null, "bias_regularizer": null, "activity_regularizer": null, "kernel_constraint": null, "bias_constraint": null}, "name": "stage2_unit2_conv1", "inbound_nodes": [{"args": [{"class_name": "__keras_tensor__", "config": {"shape": [null, 16, 16, 512], "dtype": "float32", "keras_history": ["stage2_unit2_relu1", 0, 0]}}], "kwargs": {}}]}, {"class_name": "BatchNormalization", "config": {"name": "stage2_unit2_bn2", "trainable": true, "dtype": {"module": "keras", "class_name": "DTypePolicy", "config": {"name": "float32"}, "registered_name": null}, "axis": -1, "momentum": 0.99, "epsilon": 0.001, "center": true, "scale": true, "beta_initializer": {"module": "keras.initializers", "class_name": "Zeros", "config": {}, "registered_name": null}, "gamma_initializer": {"module": "keras.initializers", "class_name": "Ones", "config": {}, "registered_name": null}, "moving_mean_initializer": {"module": "keras.initializers", "class_name": "Zeros", "config": {}, "registered_name": null}, "moving_variance_initializer": {"module": "keras.initializers", "class_name": "Ones", "config": {}, "registered_name": null}, "beta_regularizer": null, "gamma_regularizer": null, "beta_constraint": null, "gamma_constraint": null, "synchronized": false}, "name": "stage2_unit2_bn2", "inbound_nodes": [{"args": [{"class_name": "__keras_tensor__", "config": {"shape": [null, 16, 16, 128], "dtype": "float32", "keras_history": ["stage2_unit2_conv1", 0, 0]}}], "kwargs": {"mask": null}}]}, {"class_name": "Activation", "config": {"name": "stage2_unit2_relu2", "trainable": true, "dtype": {"module": "keras", "class_name": "DTypePolicy", "config": {"name": "float32"}, "registered_name": null}, "activation": "relu"}, "name": "stage2_unit2_relu2", "inbound_nodes": [{"args": [{"class_name": "__keras_tensor__", "config": {"shape": [null, 16, 16, 128], "dtype": "float32", "keras_history": ["stage2_unit2_bn2", 0, 0]}}], "kwargs": {}}]}, {"class_name": "ZeroPadding2D", "config": {"name": "zero_padding2d_54", "trainable": true, "dtype": {"module": "keras", "class_name": "DTypePolicy", "config": {"name": "float32"}, "registered_name": null}, "padding": [[1, 1], [1, 1]], "data_format": "channels_last"}, "name": "zero_padding2d_54", "inbound_nodes": [{"args": [{"class_name": "__keras_tensor__", "config": {"shape": [null, 16, 16, 128], "dtype": "float32", "keras_history": ["stage2_unit2_relu2", 0, 0]}}], "kwargs": {}}]}, {"class_name": "Conv2D", "config": {"name": "stage2_unit2_conv2", "trainable": true, "dtype": {"module": "keras", "class_name": "DTypePolicy", "config": {"name": "float32"}, "registered_name": null}, "filters": 128, "kernel_size": [3, 3], "strides": [1, 1], "padding": "valid", "data_format": "channels_last", "dilation_rate": [1, 1], "groups": 1, "activation": "linear", "use_bias": false, "kernel_initializer": {"module": "keras.initializers", "class_name": "GlorotUniform", "config": {"seed": null}, "registered_name": null}, "bias_initializer": {"module": "keras.initializers", "class_name": "Zeros", "config": {}, "registered_name": null}, "kernel_regularizer": null, "bias_regularizer": null, "activity_regularizer": null, "kernel_constraint": null, "bias_constraint": null}, "name": "stage2_unit2_conv2", "inbound_nodes": [{"args": [{"class_name": "__keras_tensor__", "config": {"shape": [null, 18, 18, 128], "dtype": "float32", "keras_history": ["zero_padding2d_54", 0, 0]}}], "kwargs": {}}]}, {"class_name": "BatchNormalization", "config": {"name": "stage2_unit2_bn3", "trainable": true, "dtype": {"module": "keras", "class_name": "DTypePolicy", "config": {"name": "float32"}, "registered_name": null}, "axis": -1, "momentum": 0.99, "epsilon": 0.001, "center": true, "scale": true, "beta_initializer": {"module": "keras.initializers", "class_name": "Zeros", "config": {}, "registered_name": null}, "gamma_initializer": {"module": "keras.initializers", "class_name": "Ones", "config": {}, "registered_name": null}, "moving_mean_initializer": {"module": "keras.initializers", "class_name": "Zeros", "config": {}, "registered_name": null}, "moving_variance_initializer": {"module": "keras.initializers", "class_name": "Ones", "config": {}, "registered_name": null}, "beta_regularizer": null, "gamma_regularizer": null, "beta_constraint": null, "gamma_constraint": null, "synchronized": false}, "name": "stage2_unit2_bn3", "inbound_nodes": [{"args": [{"class_name": "__keras_tensor__", "config": {"shape": [null, 16, 16, 128], "dtype": "float32", "keras_history": ["stage2_unit2_conv2", 0, 0]}}], "kwargs": {"mask": null}}]}, {"class_name": "Activation", "config": {"name": "stage2_unit2_relu3", "trainable": true, "dtype": {"module": "keras", "class_name": "DTypePolicy", "config": {"name": "float32"}, "registered_name": null}, "activation": "relu"}, "name": "stage2_unit2_relu3", "inbound_nodes": [{"args": [{"class_name": "__keras_tensor__", "config": {"shape": [null, 16, 16, 128], "dtype": "float32", "keras_history": ["stage2_unit2_bn3", 0, 0]}}], "kwargs": {}}]}, {"class_name": "Conv2D", "config": {"name": "stage2_unit2_conv3", "trainable": true, "dtype": {"module": "keras", "class_name": "DTypePolicy", "config": {"name": "float32"}, "registered_name": null}, "filters": 512, "kernel_size": [1, 1], "strides": [1, 1], "padding": "valid", "data_format": "channels_last", "dilation_rate": [1, 1], "groups": 1, "activation": "linear", "use_bias": false, "kernel_initializer": {"module": "keras.initializers", "class_name": "GlorotUniform", "config": {"seed": null}, "registered_name": null}, "bias_initializer": {"module": "keras.initializers", "class_name": "Zeros", "config": {}, "registered_name": null}, "kernel_regularizer": null, "bias_regularizer": null, "activity_regularizer": null, "kernel_constraint": null, "bias_constraint": null}, "name": "stage2_unit2_conv3", "inbound_nodes": [{"args": [{"class_name": "__keras_tensor__", "config": {"shape": [null, 16, 16, 128], "dtype": "float32", "keras_history": ["stage2_unit2_relu3", 0, 0]}}], "kwargs": {}}]}, {"class_name": "Add", "config": {"name": "add_4", "trainable": true, "dtype": {"module": "keras", "class_name": "DTypePolicy", "config": {"name": "float32"}, "registered_name": null}}, "name": "add_4", "inbound_nodes": [{"args": [[{"class_name": "__keras_tensor__", "config": {"shape": [null, 16, 16, 512], "dtype": "float32", "keras_history": ["stage2_unit2_conv3", 0, 0]}}, {"class_name": "__keras_tensor__", "config": {"shape": [null, 16, 16, 512], "dtype": "float32", "keras_history": ["add_3", 0, 0]}}]], "kwargs": {}}]}, {"class_name": "BatchNormalization", "config": {"name": "stage2_unit3_bn1", "trainable": true, "dtype": {"module": "keras", "class_name": "DTypePolicy", "config": {"name": "float32"}, "registered_name": null}, "axis": -1, "momentum": 0.99, "epsilon": 0.001, "center": true, "scale": true, "beta_initializer": {"module": "keras.initializers", "class_name": "Zeros", "config": {}, "registered_name": null}, "gamma_initializer": {"module": "keras.initializers", "class_name": "Ones", "config": {}, "registered_name": null}, "moving_mean_initializer": {"module": "keras.initializers", "class_name": "Zeros", "config": {}, "registered_name": null}, "moving_variance_initializer": {"module": "keras.initializers", "class_name": "Ones", "config": {}, "registered_name": null}, "beta_regularizer": null, "gamma_regularizer": null, "beta_constraint": null, "gamma_constraint": null, "synchronized": false}, "name": "stage2_unit3_bn1", "inbound_nodes": [{"args": [{"class_name": "__keras_tensor__", "config": {"shape": [null, 16, 16, 512], "dtype": "float32", "keras_history": ["add_4", 0, 0]}}], "kwargs": {"mask": null}}]}, {"class_name": "Activation", "config": {"name": "stage2_unit3_relu1", "trainable": true, "dtype": {"module": "keras", "class_name": "DTypePolicy", "config": {"name": "float32"}, "registered_name": null}, "activation": "relu"}, "name": "stage2_unit3_relu1", "inbound_nodes": [{"args": [{"class_name": "__keras_tensor__", "config": {"shape": [null, 16, 16, 512], "dtype": "float32", "keras_history": ["stage2_unit3_bn1", 0, 0]}}], "kwargs": {}}]}, {"class_name": "Conv2D", "config": {"name": "stage2_unit3_conv1", "trainable": true, "dtype": {"module": "keras", "class_name": "DTypePolicy", "config": {"name": "float32"}, "registered_name": null}, "filters": 128, "kernel_size": [1, 1], "strides": [1, 1], "padding": "valid", "data_format": "channels_last", "dilation_rate": [1, 1], "groups": 1, "activation": "linear", "use_bias": false, "kernel_initializer": {"module": "keras.initializers", "class_name": "GlorotUniform", "config": {"seed": null}, "registered_name": null}, "bias_initializer": {"module": "keras.initializers", "class_name": "Zeros", "config": {}, "registered_name": null}, "kernel_regularizer": null, "bias_regularizer": null, "activity_regularizer": null, "kernel_constraint": null, "bias_constraint": null}, "name": "stage2_unit3_conv1", "inbound_nodes": [{"args": [{"class_name": "__keras_tensor__", "config": {"shape": [null, 16, 16, 512], "dtype": "float32", "keras_history": ["stage2_unit3_relu1", 0, 0]}}], "kwargs": {}}]}, {"class_name": "BatchNormalization", "config": {"name": "stage2_unit3_bn2", "trainable": true, "dtype": {"module": "keras", "class_name": "DTypePolicy", "config": {"name": "float32"}, "registered_name": null}, "axis": -1, "momentum": 0.99, "epsilon": 0.001, "center": true, "scale": true, "beta_initializer": {"module": "keras.initializers", "class_name": "Zeros", "config": {}, "registered_name": null}, "gamma_initializer": {"module": "keras.initializers", "class_name": "Ones", "config": {}, "registered_name": null}, "moving_mean_initializer": {"module": "keras.initializers", "class_name": "Zeros", "config": {}, "registered_name": null}, "moving_variance_initializer": {"module": "keras.initializers", "class_name": "Ones", "config": {}, "registered_name": null}, "beta_regularizer": null, "gamma_regularizer": null, "beta_constraint": null, "gamma_constraint": null, "synchronized": false}, "name": "stage2_unit3_bn2", "inbound_nodes": [{"args": [{"class_name": "__keras_tensor__", "config": {"shape": [null, 16, 16, 128], "dtype": "float32", "keras_history": ["stage2_unit3_conv1", 0, 0]}}], "kwargs": {"mask": null}}]}, {"class_name": "Activation", "config": {"name": "stage2_unit3_relu2", "trainable": true, "dtype": {"module": "keras", "class_name": "DTypePolicy", "config": {"name": "float32"}, "registered_name": null}, "activation": "relu"}, "name": "stage2_unit3_relu2", "inbound_nodes": [{"args": [{"class_name": "__keras_tensor__", "config": {"shape": [null, 16, 16, 128], "dtype": "float32", "keras_history": ["stage2_unit3_bn2", 0, 0]}}], "kwargs": {}}]}, {"class_name": "ZeroPadding2D", "config": {"name": "zero_padding2d_55", "trainable": true, "dtype": {"module": "keras", "class_name": "DTypePolicy", "config": {"name": "float32"}, "registered_name": null}, "padding": [[1, 1], [1, 1]], "data_format": "channels_last"}, "name": "zero_padding2d_55", "inbound_nodes": [{"args": [{"class_name": "__keras_tensor__", "config": {"shape": [null, 16, 16, 128], "dtype": "float32", "keras_history": ["stage2_unit3_relu2", 0, 0]}}], "kwargs": {}}]}, {"class_name": "Conv2D", "config": {"name": "stage2_unit3_conv2", "trainable": true, "dtype": {"module": "keras", "class_name": "DTypePolicy", "config": {"name": "float32"}, "registered_name": null}, "filters": 128, "kernel_size": [3, 3], "strides": [1, 1], "padding": "valid", "data_format": "channels_last", "dilation_rate": [1, 1], "groups": 1, "activation": "linear", "use_bias": false, "kernel_initializer": {"module": "keras.initializers", "class_name": "GlorotUniform", "config": {"seed": null}, "registered_name": null}, "bias_initializer": {"module": "keras.initializers", "class_name": "Zeros", "config": {}, "registered_name": null}, "kernel_regularizer": null, "bias_regularizer": null, "activity_regularizer": null, "kernel_constraint": null, "bias_constraint": null}, "name": "stage2_unit3_conv2", "inbound_nodes": [{"args": [{"class_name": "__keras_tensor__", "config": {"shape": [null, 18, 18, 128], "dtype": "float32", "keras_history": ["zero_padding2d_55", 0, 0]}}], "kwargs": {}}]}, {"class_name": "BatchNormalization", "config": {"name": "stage2_unit3_bn3", "trainable": true, "dtype": {"module": "keras", "class_name": "DTypePolicy", "config": {"name": "float32"}, "registered_name": null}, "axis": -1, "momentum": 0.99, "epsilon": 0.001, "center": true, "scale": true, "beta_initializer": {"module": "keras.initializers", "class_name": "Zeros", "config": {}, "registered_name": null}, "gamma_initializer": {"module": "keras.initializers", "class_name": "Ones", "config": {}, "registered_name": null}, "moving_mean_initializer": {"module": "keras.initializers", "class_name": "Zeros", "config": {}, "registered_name": null}, "moving_variance_initializer": {"module": "keras.initializers", "class_name": "Ones", "config": {}, "registered_name": null}, "beta_regularizer": null, "gamma_regularizer": null, "beta_constraint": null, "gamma_constraint": null, "synchronized": false}, "name": "stage2_unit3_bn3", "inbound_nodes": [{"args": [{"class_name": "__keras_tensor__", "config": {"shape": [null, 16, 16, 128], "dtype": "float32", "keras_history": ["stage2_unit3_conv2", 0, 0]}}], "kwargs": {"mask": null}}]}, {"class_name": "Activation", "config": {"name": "stage2_unit3_relu3", "trainable": true, "dtype": {"module": "keras", "class_name": "DTypePolicy", "config": {"name": "float32"}, "registered_name": null}, "activation": "relu"}, "name": "stage2_unit3_relu3", "inbound_nodes": [{"args": [{"class_name": "__keras_tensor__", "config": {"shape": [null, 16, 16, 128], "dtype": "float32", "keras_history": ["stage2_unit3_bn3", 0, 0]}}], "kwargs": {}}]}, {"class_name": "Conv2D", "config": {"name": "stage2_unit3_conv3", "trainable": true, "dtype": {"module": "keras", "class_name": "DTypePolicy", "config": {"name": "float32"}, "registered_name": null}, "filters": 512, "kernel_size": [1, 1], "strides": [1, 1], "padding": "valid", "data_format": "channels_last", "dilation_rate": [1, 1], "groups": 1, "activation": "linear", "use_bias": false, "kernel_initializer": {"module": "keras.initializers", "class_name": "GlorotUniform", "config": {"seed": null}, "registered_name": null}, "bias_initializer": {"module": "keras.initializers", "class_name": "Zeros", "config": {}, "registered_name": null}, "kernel_regularizer": null, "bias_regularizer": null, "activity_regularizer": null, "kernel_constraint": null, "bias_constraint": null}, "name": "stage2_unit3_conv3", "inbound_nodes": [{"args": [{"class_name": "__keras_tensor__", "config": {"shape": [null, 16, 16, 128], "dtype": "float32", "keras_history": ["stage2_unit3_relu3", 0, 0]}}], "kwargs": {}}]}, {"class_name": "Add", "config": {"name": "add_5", "trainable": true, "dtype": {"module": "keras", "class_name": "DTypePolicy", "config": {"name": "float32"}, "registered_name": null}}, "name": "add_5", "inbound_nodes": [{"args": [[{"class_name": "__keras_tensor__", "config": {"shape": [null, 16, 16, 512], "dtype": "float32", "keras_history": ["stage2_unit3_conv3", 0, 0]}}, {"class_name": "__keras_tensor__", "config": {"shape": [null, 16, 16, 512], "dtype": "float32", "keras_history": ["add_4", 0, 0]}}]], "kwargs": {}}]}, {"class_name": "BatchNormalization", "config": {"name": "stage2_unit4_bn1", "trainable": true, "dtype": {"module": "keras", "class_name": "DTypePolicy", "config": {"name": "float32"}, "registered_name": null}, "axis": -1, "momentum": 0.99, "epsilon": 0.001, "center": true, "scale": true, "beta_initializer": {"module": "keras.initializers", "class_name": "Zeros", "config": {}, "registered_name": null}, "gamma_initializer": {"module": "keras.initializers", "class_name": "Ones", "config": {}, "registered_name": null}, "moving_mean_initializer": {"module": "keras.initializers", "class_name": "Zeros", "config": {}, "registered_name": null}, "moving_variance_initializer": {"module": "keras.initializers", "class_name": "Ones", "config": {}, "registered_name": null}, "beta_regularizer": null, "gamma_regularizer": null, "beta_constraint": null, "gamma_constraint": null, "synchronized": false}, "name": "stage2_unit4_bn1", "inbound_nodes": [{"args": [{"class_name": "__keras_tensor__", "config": {"shape": [null, 16, 16, 512], "dtype": "float32", "keras_history": ["add_5", 0, 0]}}], "kwargs": {"mask": null}}]}, {"class_name": "Activation", "config": {"name": "stage2_unit4_relu1", "trainable": true, "dtype": {"module": "keras", "class_name": "DTypePolicy", "config": {"name": "float32"}, "registered_name": null}, "activation": "relu"}, "name": "stage2_unit4_relu1", "inbound_nodes": [{"args": [{"class_name": "__keras_tensor__", "config": {"shape": [null, 16, 16, 512], "dtype": "float32", "keras_history": ["stage2_unit4_bn1", 0, 0]}}], "kwargs": {}}]}, {"class_name": "Conv2D", "config": {"name": "stage2_unit4_conv1", "trainable": true, "dtype": {"module": "keras", "class_name": "DTypePolicy", "config": {"name": "float32"}, "registered_name": null}, "filters": 128, "kernel_size": [1, 1], "strides": [1, 1], "padding": "valid", "data_format": "channels_last", "dilation_rate": [1, 1], "groups": 1, "activation": "linear", "use_bias": false, "kernel_initializer": {"module": "keras.initializers", "class_name": "GlorotUniform", "config": {"seed": null}, "registered_name": null}, "bias_initializer": {"module": "keras.initializers", "class_name": "Zeros", "config": {}, "registered_name": null}, "kernel_regularizer": null, "bias_regularizer": null, "activity_regularizer": null, "kernel_constraint": null, "bias_constraint": null}, "name": "stage2_unit4_conv1", "inbound_nodes": [{"args": [{"class_name": "__keras_tensor__", "config": {"shape": [null, 16, 16, 512], "dtype": "float32", "keras_history": ["stage2_unit4_relu1", 0, 0]}}], "kwargs": {}}]}, {"class_name": "BatchNormalization", "config": {"name": "stage2_unit4_bn2", "trainable": true, "dtype": {"module": "keras", "class_name": "DTypePolicy", "config": {"name": "float32"}, "registered_name": null}, "axis": -1, "momentum": 0.99, "epsilon": 0.001, "center": true, "scale": true, "beta_initializer": {"module": "keras.initializers", "class_name": "Zeros", "config": {}, "registered_name": null}, "gamma_initializer": {"module": "keras.initializers", "class_name": "Ones", "config": {}, "registered_name": null}, "moving_mean_initializer": {"module": "keras.initializers", "class_name": "Zeros", "config": {}, "registered_name": null}, "moving_variance_initializer": {"module": "keras.initializers", "class_name": "Ones", "config": {}, "registered_name": null}, "beta_regularizer": null, "gamma_regularizer": null, "beta_constraint": null, "gamma_constraint": null, "synchronized": false}, "name": "stage2_unit4_bn2", "inbound_nodes": [{"args": [{"class_name": "__keras_tensor__", "config": {"shape": [null, 16, 16, 128], "dtype": "float32", "keras_history": ["stage2_unit4_conv1", 0, 0]}}], "kwargs": {"mask": null}}]}, {"class_name": "Activation", "config": {"name": "stage2_unit4_relu2", "trainable": true, "dtype": {"module": "keras", "class_name": "DTypePolicy", "config": {"name": "float32"}, "registered_name": null}, "activation": "relu"}, "name": "stage2_unit4_relu2", "inbound_nodes": [{"args": [{"class_name": "__keras_tensor__", "config": {"shape": [null, 16, 16, 128], "dtype": "float32", "keras_history": ["stage2_unit4_bn2", 0, 0]}}], "kwargs": {}}]}, {"class_name": "ZeroPadding2D", "config": {"name": "zero_padding2d_56", "trainable": true, "dtype": {"module": "keras", "class_name": "DTypePolicy", "config": {"name": "float32"}, "registered_name": null}, "padding": [[1, 1], [1, 1]], "data_format": "channels_last"}, "name": "zero_padding2d_56", "inbound_nodes": [{"args": [{"class_name": "__keras_tensor__", "config": {"shape": [null, 16, 16, 128], "dtype": "float32", "keras_history": ["stage2_unit4_relu2", 0, 0]}}], "kwargs": {}}]}, {"class_name": "Conv2D", "config": {"name": "stage2_unit4_conv2", "trainable": true, "dtype": {"module": "keras", "class_name": "DTypePolicy", "config": {"name": "float32"}, "registered_name": null}, "filters": 128, "kernel_size": [3, 3], "strides": [1, 1], "padding": "valid", "data_format": "channels_last", "dilation_rate": [1, 1], "groups": 1, "activation": "linear", "use_bias": false, "kernel_initializer": {"module": "keras.initializers", "class_name": "GlorotUniform", "config": {"seed": null}, "registered_name": null}, "bias_initializer": {"module": "keras.initializers", "class_name": "Zeros", "config": {}, "registered_name": null}, "kernel_regularizer": null, "bias_regularizer": null, "activity_regularizer": null, "kernel_constraint": null, "bias_constraint": null}, "name": "stage2_unit4_conv2", "inbound_nodes": [{"args": [{"class_name": "__keras_tensor__", "config": {"shape": [null, 18, 18, 128], "dtype": "float32", "keras_history": ["zero_padding2d_56", 0, 0]}}], "kwargs": {}}]}, {"class_name": "BatchNormalization", "config": {"name": "stage2_unit4_bn3", "trainable": true, "dtype": {"module": "keras", "class_name": "DTypePolicy", "config": {"name": "float32"}, "registered_name": null}, "axis": -1, "momentum": 0.99, "epsilon": 0.001, "center": true, "scale": true, "beta_initializer": {"module": "keras.initializers", "class_name": "Zeros", "config": {}, "registered_name": null}, "gamma_initializer": {"module": "keras.initializers", "class_name": "Ones", "config": {}, "registered_name": null}, "moving_mean_initializer": {"module": "keras.initializers", "class_name": "Zeros", "config": {}, "registered_name": null}, "moving_variance_initializer": {"module": "keras.initializers", "class_name": "Ones", "config": {}, "registered_name": null}, "beta_regularizer": null, "gamma_regularizer": null, "beta_constraint": null, "gamma_constraint": null, "synchronized": false}, "name": "stage2_unit4_bn3", "inbound_nodes": [{"args": [{"class_name": "__keras_tensor__", "config": {"shape": [null, 16, 16, 128], "dtype": "float32", "keras_history": ["stage2_unit4_conv2", 0, 0]}}], "kwargs": {"mask": null}}]}, {"class_name": "Activation", "config": {"name": "stage2_unit4_relu3", "trainable": true, "dtype": {"module": "keras", "class_name": "DTypePolicy", "config": {"name": "float32"}, "registered_name": null}, "activation": "relu"}, "name": "stage2_unit4_relu3", "inbound_nodes": [{"args": [{"class_name": "__keras_tensor__", "config": {"shape": [null, 16, 16, 128], "dtype": "float32", "keras_history": ["stage2_unit4_bn3", 0, 0]}}], "kwargs": {}}]}, {"class_name": "Conv2D", "config": {"name": "stage2_unit4_conv3", "trainable": true, "dtype": {"module": "keras", "class_name": "DTypePolicy", "config": {"name": "float32"}, "registered_name": null}, "filters": 512, "kernel_size": [1, 1], "strides": [1, 1], "padding": "valid", "data_format": "channels_last", "dilation_rate": [1, 1], "groups": 1, "activation": "linear", "use_bias": false, "kernel_initializer": {"module": "keras.initializers", "class_name": "GlorotUniform", "config": {"seed": null}, "registered_name": null}, "bias_initializer": {"module": "keras.initializers", "class_name": "Zeros", "config": {}, "registered_name": null}, "kernel_regularizer": null, "bias_regularizer": null, "activity_regularizer": null, "kernel_constraint": null, "bias_constraint": null}, "name": "stage2_unit4_conv3", "inbound_nodes": [{"args": [{"class_name": "__keras_tensor__", "config": {"shape": [null, 16, 16, 128], "dtype": "float32", "keras_history": ["stage2_unit4_relu3", 0, 0]}}], "kwargs": {}}]}, {"class_name": "Add", "config": {"name": "add_6", "trainable": true, "dtype": {"module": "keras", "class_name": "DTypePolicy", "config": {"name": "float32"}, "registered_name": null}}, "name": "add_6", "inbound_nodes": [{"args": [[{"class_name": "__keras_tensor__", "config": {"shape": [null, 16, 16, 512], "dtype": "float32", "keras_history": ["stage2_unit4_conv3", 0, 0]}}, {"class_name": "__keras_tensor__", "config": {"shape": [null, 16, 16, 512], "dtype": "float32", "keras_history": ["add_5", 0, 0]}}]], "kwargs": {}}]}, {"class_name": "BatchNormalization", "config": {"name": "stage2_unit5_bn1", "trainable": true, "dtype": {"module": "keras", "class_name": "DTypePolicy", "config": {"name": "float32"}, "registered_name": null}, "axis": -1, "momentum": 0.99, "epsilon": 0.001, "center": true, "scale": true, "beta_initializer": {"module": "keras.initializers", "class_name": "Zeros", "config": {}, "registered_name": null}, "gamma_initializer": {"module": "keras.initializers", "class_name": "Ones", "config": {}, "registered_name": null}, "moving_mean_initializer": {"module": "keras.initializers", "class_name": "Zeros", "config": {}, "registered_name": null}, "moving_variance_initializer": {"module": "keras.initializers", "class_name": "Ones", "config": {}, "registered_name": null}, "beta_regularizer": null, "gamma_regularizer": null, "beta_constraint": null, "gamma_constraint": null, "synchronized": false}, "name": "stage2_unit5_bn1", "inbound_nodes": [{"args": [{"class_name": "__keras_tensor__", "config": {"shape": [null, 16, 16, 512], "dtype": "float32", "keras_history": ["add_6", 0, 0]}}], "kwargs": {"mask": null}}]}, {"class_name": "Activation", "config": {"name": "stage2_unit5_relu1", "trainable": true, "dtype": {"module": "keras", "class_name": "DTypePolicy", "config": {"name": "float32"}, "registered_name": null}, "activation": "relu"}, "name": "stage2_unit5_relu1", "inbound_nodes": [{"args": [{"class_name": "__keras_tensor__", "config": {"shape": [null, 16, 16, 512], "dtype": "float32", "keras_history": ["stage2_unit5_bn1", 0, 0]}}], "kwargs": {}}]}, {"class_name": "Conv2D", "config": {"name": "stage2_unit5_conv1", "trainable": true, "dtype": {"module": "keras", "class_name": "DTypePolicy", "config": {"name": "float32"}, "registered_name": null}, "filters": 128, "kernel_size": [1, 1], "strides": [1, 1], "padding": "valid", "data_format": "channels_last", "dilation_rate": [1, 1], "groups": 1, "activation": "linear", "use_bias": false, "kernel_initializer": {"module": "keras.initializers", "class_name": "GlorotUniform", "config": {"seed": null}, "registered_name": null}, "bias_initializer": {"module": "keras.initializers", "class_name": "Zeros", "config": {}, "registered_name": null}, "kernel_regularizer": null, "bias_regularizer": null, "activity_regularizer": null, "kernel_constraint": null, "bias_constraint": null}, "name": "stage2_unit5_conv1", "inbound_nodes": [{"args": [{"class_name": "__keras_tensor__", "config": {"shape": [null, 16, 16, 512], "dtype": "float32", "keras_history": ["stage2_unit5_relu1", 0, 0]}}], "kwargs": {}}]}, {"class_name": "BatchNormalization", "config": {"name": "stage2_unit5_bn2", "trainable": true, "dtype": {"module": "keras", "class_name": "DTypePolicy", "config": {"name": "float32"}, "registered_name": null}, "axis": -1, "momentum": 0.99, "epsilon": 0.001, "center": true, "scale": true, "beta_initializer": {"module": "keras.initializers", "class_name": "Zeros", "config": {}, "registered_name": null}, "gamma_initializer": {"module": "keras.initializers", "class_name": "Ones", "config": {}, "registered_name": null}, "moving_mean_initializer": {"module": "keras.initializers", "class_name": "Zeros", "config": {}, "registered_name": null}, "moving_variance_initializer": {"module": "keras.initializers", "class_name": "Ones", "config": {}, "registered_name": null}, "beta_regularizer": null, "gamma_regularizer": null, "beta_constraint": null, "gamma_constraint": null, "synchronized": false}, "name": "stage2_unit5_bn2", "inbound_nodes": [{"args": [{"class_name": "__keras_tensor__", "config": {"shape": [null, 16, 16, 128], "dtype": "float32", "keras_history": ["stage2_unit5_conv1", 0, 0]}}], "kwargs": {"mask": null}}]}, {"class_name": "Activation", "config": {"name": "stage2_unit5_relu2", "trainable": true, "dtype": {"module": "keras", "class_name": "DTypePolicy", "config": {"name": "float32"}, "registered_name": null}, "activation": "relu"}, "name": "stage2_unit5_relu2", "inbound_nodes": [{"args": [{"class_name": "__keras_tensor__", "config": {"shape": [null, 16, 16, 128], "dtype": "float32", "keras_history": ["stage2_unit5_bn2", 0, 0]}}], "kwargs": {}}]}, {"class_name": "ZeroPadding2D", "config": {"name": "zero_padding2d_57", "trainable": true, "dtype": {"module": "keras", "class_name": "DTypePolicy", "config": {"name": "float32"}, "registered_name": null}, "padding": [[1, 1], [1, 1]], "data_format": "channels_last"}, "name": "zero_padding2d_57", "inbound_nodes": [{"args": [{"class_name": "__keras_tensor__", "config": {"shape": [null, 16, 16, 128], "dtype": "float32", "keras_history": ["stage2_unit5_relu2", 0, 0]}}], "kwargs": {}}]}, {"class_name": "Conv2D", "config": {"name": "stage2_unit5_conv2", "trainable": true, "dtype": {"module": "keras", "class_name": "DTypePolicy", "config": {"name": "float32"}, "registered_name": null}, "filters": 128, "kernel_size": [3, 3], "strides": [1, 1], "padding": "valid", "data_format": "channels_last", "dilation_rate": [1, 1], "groups": 1, "activation": "linear", "use_bias": false, "kernel_initializer": {"module": "keras.initializers", "class_name": "GlorotUniform", "config": {"seed": null}, "registered_name": null}, "bias_initializer": {"module": "keras.initializers", "class_name": "Zeros", "config": {}, "registered_name": null}, "kernel_regularizer": null, "bias_regularizer": null, "activity_regularizer": null, "kernel_constraint": null, "bias_constraint": null}, "name": "stage2_unit5_conv2", "inbound_nodes": [{"args": [{"class_name": "__keras_tensor__", "config": {"shape": [null, 18, 18, 128], "dtype": "float32", "keras_history": ["zero_padding2d_57", 0, 0]}}], "kwargs": {}}]}, {"class_name": "BatchNormalization", "config": {"name": "stage2_unit5_bn3", "trainable": true, "dtype": {"module": "keras", "class_name": "DTypePolicy", "config": {"name": "float32"}, "registered_name": null}, "axis": -1, "momentum": 0.99, "epsilon": 0.001, "center": true, "scale": true, "beta_initializer": {"module": "keras.initializers", "class_name": "Zeros", "config": {}, "registered_name": null}, "gamma_initializer": {"module": "keras.initializers", "class_name": "Ones", "config": {}, "registered_name": null}, "moving_mean_initializer": {"module": "keras.initializers", "class_name": "Zeros", "config": {}, "registered_name": null}, "moving_variance_initializer": {"module": "keras.initializers", "class_name": "Ones", "config": {}, "registered_name": null}, "beta_regularizer": null, "gamma_regularizer": null, "beta_constraint": null, "gamma_constraint": null, "synchronized": false}, "name": "stage2_unit5_bn3", "inbound_nodes": [{"args": [{"class_name": "__keras_tensor__", "config": {"shape": [null, 16, 16, 128], "dtype": "float32", "keras_history": ["stage2_unit5_conv2", 0, 0]}}], "kwargs": {"mask": null}}]}, {"class_name": "Activation", "config": {"name": "stage2_unit5_relu3", "trainable": true, "dtype": {"module": "keras", "class_name": "DTypePolicy", "config": {"name": "float32"}, "registered_name": null}, "activation": "relu"}, "name": "stage2_unit5_relu3", "inbound_nodes": [{"args": [{"class_name": "__keras_tensor__", "config": {"shape": [null, 16, 16, 128], "dtype": "float32", "keras_history": ["stage2_unit5_bn3", 0, 0]}}], "kwargs": {}}]}, {"class_name": "Conv2D", "config": {"name": "stage2_unit5_conv3", "trainable": true, "dtype": {"module": "keras", "class_name": "DTypePolicy", "config": {"name": "float32"}, "registered_name": null}, "filters": 512, "kernel_size": [1, 1], "strides": [1, 1], "padding": "valid", "data_format": "channels_last", "dilation_rate": [1, 1], "groups": 1, "activation": "linear", "use_bias": false, "kernel_initializer": {"module": "keras.initializers", "class_name": "GlorotUniform", "config": {"seed": null}, "registered_name": null}, "bias_initializer": {"module": "keras.initializers", "class_name": "Zeros", "config": {}, "registered_name": null}, "kernel_regularizer": null, "bias_regularizer": null, "activity_regularizer": null, "kernel_constraint": null, "bias_constraint": null}, "name": "stage2_unit5_conv3", "inbound_nodes": [{"args": [{"class_name": "__keras_tensor__", "config": {"shape": [null, 16, 16, 128], "dtype": "float32", "keras_history": ["stage2_unit5_relu3", 0, 0]}}], "kwargs": {}}]}, {"class_name": "Add", "config": {"name": "add_7", "trainable": true, "dtype": {"module": "keras", "class_name": "DTypePolicy", "config": {"name": "float32"}, "registered_name": null}}, "name": "add_7", "inbound_nodes": [{"args": [[{"class_name": "__keras_tensor__", "config": {"shape": [null, 16, 16, 512], "dtype": "float32", "keras_history": ["stage2_unit5_conv3", 0, 0]}}, {"class_name": "__keras_tensor__", "config": {"shape": [null, 16, 16, 512], "dtype": "float32", "keras_history": ["add_6", 0, 0]}}]], "kwargs": {}}]}, {"class_name": "BatchNormalization", "config": {"name": "stage2_unit6_bn1", "trainable": true, "dtype": {"module": "keras", "class_name": "DTypePolicy", "config": {"name": "float32"}, "registered_name": null}, "axis": -1, "momentum": 0.99, "epsilon": 0.001, "center": true, "scale": true, "beta_initializer": {"module": "keras.initializers", "class_name": "Zeros", "config": {}, "registered_name": null}, "gamma_initializer": {"module": "keras.initializers", "class_name": "Ones", "config": {}, "registered_name": null}, "moving_mean_initializer": {"module": "keras.initializers", "class_name": "Zeros", "config": {}, "registered_name": null}, "moving_variance_initializer": {"module": "keras.initializers", "class_name": "Ones", "config": {}, "registered_name": null}, "beta_regularizer": null, "gamma_regularizer": null, "beta_constraint": null, "gamma_constraint": null, "synchronized": false}, "name": "stage2_unit6_bn1", "inbound_nodes": [{"args": [{"class_name": "__keras_tensor__", "config": {"shape": [null, 16, 16, 512], "dtype": "float32", "keras_history": ["add_7", 0, 0]}}], "kwargs": {"mask": null}}]}, {"class_name": "Activation", "config": {"name": "stage2_unit6_relu1", "trainable": true, "dtype": {"module": "keras", "class_name": "DTypePolicy", "config": {"name": "float32"}, "registered_name": null}, "activation": "relu"}, "name": "stage2_unit6_relu1", "inbound_nodes": [{"args": [{"class_name": "__keras_tensor__", "config": {"shape": [null, 16, 16, 512], "dtype": "float32", "keras_history": ["stage2_unit6_bn1", 0, 0]}}], "kwargs": {}}]}, {"class_name": "Conv2D", "config": {"name": "stage2_unit6_conv1", "trainable": true, "dtype": {"module": "keras", "class_name": "DTypePolicy", "config": {"name": "float32"}, "registered_name": null}, "filters": 128, "kernel_size": [1, 1], "strides": [1, 1], "padding": "valid", "data_format": "channels_last", "dilation_rate": [1, 1], "groups": 1, "activation": "linear", "use_bias": false, "kernel_initializer": {"module": "keras.initializers", "class_name": "GlorotUniform", "config": {"seed": null}, "registered_name": null}, "bias_initializer": {"module": "keras.initializers", "class_name": "Zeros", "config": {}, "registered_name": null}, "kernel_regularizer": null, "bias_regularizer": null, "activity_regularizer": null, "kernel_constraint": null, "bias_constraint": null}, "name": "stage2_unit6_conv1", "inbound_nodes": [{"args": [{"class_name": "__keras_tensor__", "config": {"shape": [null, 16, 16, 512], "dtype": "float32", "keras_history": ["stage2_unit6_relu1", 0, 0]}}], "kwargs": {}}]}, {"class_name": "BatchNormalization", "config": {"name": "stage2_unit6_bn2", "trainable": true, "dtype": {"module": "keras", "class_name": "DTypePolicy", "config": {"name": "float32"}, "registered_name": null}, "axis": -1, "momentum": 0.99, "epsilon": 0.001, "center": true, "scale": true, "beta_initializer": {"module": "keras.initializers", "class_name": "Zeros", "config": {}, "registered_name": null}, "gamma_initializer": {"module": "keras.initializers", "class_name": "Ones", "config": {}, "registered_name": null}, "moving_mean_initializer": {"module": "keras.initializers", "class_name": "Zeros", "config": {}, "registered_name": null}, "moving_variance_initializer": {"module": "keras.initializers", "class_name": "Ones", "config": {}, "registered_name": null}, "beta_regularizer": null, "gamma_regularizer": null, "beta_constraint": null, "gamma_constraint": null, "synchronized": false}, "name": "stage2_unit6_bn2", "inbound_nodes": [{"args": [{"class_name": "__keras_tensor__", "config": {"shape": [null, 16, 16, 128], "dtype": "float32", "keras_history": ["stage2_unit6_conv1", 0, 0]}}], "kwargs": {"mask": null}}]}, {"class_name": "Activation", "config": {"name": "stage2_unit6_relu2", "trainable": true, "dtype": {"module": "keras", "class_name": "DTypePolicy", "config": {"name": "float32"}, "registered_name": null}, "activation": "relu"}, "name": "stage2_unit6_relu2", "inbound_nodes": [{"args": [{"class_name": "__keras_tensor__", "config": {"shape": [null, 16, 16, 128], "dtype": "float32", "keras_history": ["stage2_unit6_bn2", 0, 0]}}], "kwargs": {}}]}, {"class_name": "ZeroPadding2D", "config": {"name": "zero_padding2d_58", "trainable": true, "dtype": {"module": "keras", "class_name": "DTypePolicy", "config": {"name": "float32"}, "registered_name": null}, "padding": [[1, 1], [1, 1]], "data_format": "channels_last"}, "name": "zero_padding2d_58", "inbound_nodes": [{"args": [{"class_name": "__keras_tensor__", "config": {"shape": [null, 16, 16, 128], "dtype": "float32", "keras_history": ["stage2_unit6_relu2", 0, 0]}}], "kwargs": {}}]}, {"class_name": "Conv2D", "config": {"name": "stage2_unit6_conv2", "trainable": true, "dtype": {"module": "keras", "class_name": "DTypePolicy", "config": {"name": "float32"}, "registered_name": null}, "filters": 128, "kernel_size": [3, 3], "strides": [1, 1], "padding": "valid", "data_format": "channels_last", "dilation_rate": [1, 1], "groups": 1, "activation": "linear", "use_bias": false, "kernel_initializer": {"module": "keras.initializers", "class_name": "GlorotUniform", "config": {"seed": null}, "registered_name": null}, "bias_initializer": {"module": "keras.initializers", "class_name": "Zeros", "config": {}, "registered_name": null}, "kernel_regularizer": null, "bias_regularizer": null, "activity_regularizer": null, "kernel_constraint": null, "bias_constraint": null}, "name": "stage2_unit6_conv2", "inbound_nodes": [{"args": [{"class_name": "__keras_tensor__", "config": {"shape": [null, 18, 18, 128], "dtype": "float32", "keras_history": ["zero_padding2d_58", 0, 0]}}], "kwargs": {}}]}, {"class_name": "BatchNormalization", "config": {"name": "stage2_unit6_bn3", "trainable": true, "dtype": {"module": "keras", "class_name": "DTypePolicy", "config": {"name": "float32"}, "registered_name": null}, "axis": -1, "momentum": 0.99, "epsilon": 0.001, "center": true, "scale": true, "beta_initializer": {"module": "keras.initializers", "class_name": "Zeros", "config": {}, "registered_name": null}, "gamma_initializer": {"module": "keras.initializers", "class_name": "Ones", "config": {}, "registered_name": null}, "moving_mean_initializer": {"module": "keras.initializers", "class_name": "Zeros", "config": {}, "registered_name": null}, "moving_variance_initializer": {"module": "keras.initializers", "class_name": "Ones", "config": {}, "registered_name": null}, "beta_regularizer": null, "gamma_regularizer": null, "beta_constraint": null, "gamma_constraint": null, "synchronized": false}, "name": "stage2_unit6_bn3", "inbound_nodes": [{"args": [{"class_name": "__keras_tensor__", "config": {"shape": [null, 16, 16, 128], "dtype": "float32", "keras_history": ["stage2_unit6_conv2", 0, 0]}}], "kwargs": {"mask": null}}]}, {"class_name": "Activation", "config": {"name": "stage2_unit6_relu3", "trainable": true, "dtype": {"module": "keras", "class_name": "DTypePolicy", "config": {"name": "float32"}, "registered_name": null}, "activation": "relu"}, "name": "stage2_unit6_relu3", "inbound_nodes": [{"args": [{"class_name": "__keras_tensor__", "config": {"shape": [null, 16, 16, 128], "dtype": "float32", "keras_history": ["stage2_unit6_bn3", 0, 0]}}], "kwargs": {}}]}, {"class_name": "Conv2D", "config": {"name": "stage2_unit6_conv3", "trainable": true, "dtype": {"module": "keras", "class_name": "DTypePolicy", "config": {"name": "float32"}, "registered_name": null}, "filters": 512, "kernel_size": [1, 1], "strides": [1, 1], "padding": "valid", "data_format": "channels_last", "dilation_rate": [1, 1], "groups": 1, "activation": "linear", "use_bias": false, "kernel_initializer": {"module": "keras.initializers", "class_name": "GlorotUniform", "config": {"seed": null}, "registered_name": null}, "bias_initializer": {"module": "keras.initializers", "class_name": "Zeros", "config": {}, "registered_name": null}, "kernel_regularizer": null, "bias_regularizer": null, "activity_regularizer": null, "kernel_constraint": null, "bias_constraint": null}, "name": "stage2_unit6_conv3", "inbound_nodes": [{"args": [{"class_name": "__keras_tensor__", "config": {"shape": [null, 16, 16, 128], "dtype": "float32", "keras_history": ["stage2_unit6_relu3", 0, 0]}}], "kwargs": {}}]}, {"class_name": "Add", "config": {"name": "add_8", "trainable": true, "dtype": {"module": "keras", "class_name": "DTypePolicy", "config": {"name": "float32"}, "registered_name": null}}, "name": "add_8", "inbound_nodes": [{"args": [[{"class_name": "__keras_tensor__", "config": {"shape": [null, 16, 16, 512], "dtype": "float32", "keras_history": ["stage2_unit6_conv3", 0, 0]}}, {"class_name": "__keras_tensor__", "config": {"shape": [null, 16, 16, 512], "dtype": "float32", "keras_history": ["add_7", 0, 0]}}]], "kwargs": {}}]}, {"class_name": "BatchNormalization", "config": {"name": "stage2_unit7_bn1", "trainable": true, "dtype": {"module": "keras", "class_name": "DTypePolicy", "config": {"name": "float32"}, "registered_name": null}, "axis": -1, "momentum": 0.99, "epsilon": 0.001, "center": true, "scale": true, "beta_initializer": {"module": "keras.initializers", "class_name": "Zeros", "config": {}, "registered_name": null}, "gamma_initializer": {"module": "keras.initializers", "class_name": "Ones", "config": {}, "registered_name": null}, "moving_mean_initializer": {"module": "keras.initializers", "class_name": "Zeros", "config": {}, "registered_name": null}, "moving_variance_initializer": {"module": "keras.initializers", "class_name": "Ones", "config": {}, "registered_name": null}, "beta_regularizer": null, "gamma_regularizer": null, "beta_constraint": null, "gamma_constraint": null, "synchronized": false}, "name": "stage2_unit7_bn1", "inbound_nodes": [{"args": [{"class_name": "__keras_tensor__", "config": {"shape": [null, 16, 16, 512], "dtype": "float32", "keras_history": ["add_8", 0, 0]}}], "kwargs": {"mask": null}}]}, {"class_name": "Activation", "config": {"name": "stage2_unit7_relu1", "trainable": true, "dtype": {"module": "keras", "class_name": "DTypePolicy", "config": {"name": "float32"}, "registered_name": null}, "activation": "relu"}, "name": "stage2_unit7_relu1", "inbound_nodes": [{"args": [{"class_name": "__keras_tensor__", "config": {"shape": [null, 16, 16, 512], "dtype": "float32", "keras_history": ["stage2_unit7_bn1", 0, 0]}}], "kwargs": {}}]}, {"class_name": "Conv2D", "config": {"name": "stage2_unit7_conv1", "trainable": true, "dtype": {"module": "keras", "class_name": "DTypePolicy", "config": {"name": "float32"}, "registered_name": null}, "filters": 128, "kernel_size": [1, 1], "strides": [1, 1], "padding": "valid", "data_format": "channels_last", "dilation_rate": [1, 1], "groups": 1, "activation": "linear", "use_bias": false, "kernel_initializer": {"module": "keras.initializers", "class_name": "GlorotUniform", "config": {"seed": null}, "registered_name": null}, "bias_initializer": {"module": "keras.initializers", "class_name": "Zeros", "config": {}, "registered_name": null}, "kernel_regularizer": null, "bias_regularizer": null, "activity_regularizer": null, "kernel_constraint": null, "bias_constraint": null}, "name": "stage2_unit7_conv1", "inbound_nodes": [{"args": [{"class_name": "__keras_tensor__", "config": {"shape": [null, 16, 16, 512], "dtype": "float32", "keras_history": ["stage2_unit7_relu1", 0, 0]}}], "kwargs": {}}]}, {"class_name": "BatchNormalization", "config": {"name": "stage2_unit7_bn2", "trainable": true, "dtype": {"module": "keras", "class_name": "DTypePolicy", "config": {"name": "float32"}, "registered_name": null}, "axis": -1, "momentum": 0.99, "epsilon": 0.001, "center": true, "scale": true, "beta_initializer": {"module": "keras.initializers", "class_name": "Zeros", "config": {}, "registered_name": null}, "gamma_initializer": {"module": "keras.initializers", "class_name": "Ones", "config": {}, "registered_name": null}, "moving_mean_initializer": {"module": "keras.initializers", "class_name": "Zeros", "config": {}, "registered_name": null}, "moving_variance_initializer": {"module": "keras.initializers", "class_name": "Ones", "config": {}, "registered_name": null}, "beta_regularizer": null, "gamma_regularizer": null, "beta_constraint": null, "gamma_constraint": null, "synchronized": false}, "name": "stage2_unit7_bn2", "inbound_nodes": [{"args": [{"class_name": "__keras_tensor__", "config": {"shape": [null, 16, 16, 128], "dtype": "float32", "keras_history": ["stage2_unit7_conv1", 0, 0]}}], "kwargs": {"mask": null}}]}, {"class_name": "Activation", "config": {"name": "stage2_unit7_relu2", "trainable": true, "dtype": {"module": "keras", "class_name": "DTypePolicy", "config": {"name": "float32"}, "registered_name": null}, "activation": "relu"}, "name": "stage2_unit7_relu2", "inbound_nodes": [{"args": [{"class_name": "__keras_tensor__", "config": {"shape": [null, 16, 16, 128], "dtype": "float32", "keras_history": ["stage2_unit7_bn2", 0, 0]}}], "kwargs": {}}]}, {"class_name": "ZeroPadding2D", "config": {"name": "zero_padding2d_59", "trainable": true, "dtype": {"module": "keras", "class_name": "DTypePolicy", "config": {"name": "float32"}, "registered_name": null}, "padding": [[1, 1], [1, 1]], "data_format": "channels_last"}, "name": "zero_padding2d_59", "inbound_nodes": [{"args": [{"class_name": "__keras_tensor__", "config": {"shape": [null, 16, 16, 128], "dtype": "float32", "keras_history": ["stage2_unit7_relu2", 0, 0]}}], "kwargs": {}}]}, {"class_name": "Conv2D", "config": {"name": "stage2_unit7_conv2", "trainable": true, "dtype": {"module": "keras", "class_name": "DTypePolicy", "config": {"name": "float32"}, "registered_name": null}, "filters": 128, "kernel_size": [3, 3], "strides": [1, 1], "padding": "valid", "data_format": "channels_last", "dilation_rate": [1, 1], "groups": 1, "activation": "linear", "use_bias": false, "kernel_initializer": {"module": "keras.initializers", "class_name": "GlorotUniform", "config": {"seed": null}, "registered_name": null}, "bias_initializer": {"module": "keras.initializers", "class_name": "Zeros", "config": {}, "registered_name": null}, "kernel_regularizer": null, "bias_regularizer": null, "activity_regularizer": null, "kernel_constraint": null, "bias_constraint": null}, "name": "stage2_unit7_conv2", "inbound_nodes": [{"args": [{"class_name": "__keras_tensor__", "config": {"shape": [null, 18, 18, 128], "dtype": "float32", "keras_history": ["zero_padding2d_59", 0, 0]}}], "kwargs": {}}]}, {"class_name": "BatchNormalization", "config": {"name": "stage2_unit7_bn3", "trainable": true, "dtype": {"module": "keras", "class_name": "DTypePolicy", "config": {"name": "float32"}, "registered_name": null}, "axis": -1, "momentum": 0.99, "epsilon": 0.001, "center": true, "scale": true, "beta_initializer": {"module": "keras.initializers", "class_name": "Zeros", "config": {}, "registered_name": null}, "gamma_initializer": {"module": "keras.initializers", "class_name": "Ones", "config": {}, "registered_name": null}, "moving_mean_initializer": {"module": "keras.initializers", "class_name": "Zeros", "config": {}, "registered_name": null}, "moving_variance_initializer": {"module": "keras.initializers", "class_name": "Ones", "config": {}, "registered_name": null}, "beta_regularizer": null, "gamma_regularizer": null, "beta_constraint": null, "gamma_constraint": null, "synchronized": false}, "name": "stage2_unit7_bn3", "inbound_nodes": [{"args": [{"class_name": "__keras_tensor__", "config": {"shape": [null, 16, 16, 128], "dtype": "float32", "keras_history": ["stage2_unit7_conv2", 0, 0]}}], "kwargs": {"mask": null}}]}, {"class_name": "Activation", "config": {"name": "stage2_unit7_relu3", "trainable": true, "dtype": {"module": "keras", "class_name": "DTypePolicy", "config": {"name": "float32"}, "registered_name": null}, "activation": "relu"}, "name": "stage2_unit7_relu3", "inbound_nodes": [{"args": [{"class_name": "__keras_tensor__", "config": {"shape": [null, 16, 16, 128], "dtype": "float32", "keras_history": ["stage2_unit7_bn3", 0, 0]}}], "kwargs": {}}]}, {"class_name": "Conv2D", "config": {"name": "stage2_unit7_conv3", "trainable": true, "dtype": {"module": "keras", "class_name": "DTypePolicy", "config": {"name": "float32"}, "registered_name": null}, "filters": 512, "kernel_size": [1, 1], "strides": [1, 1], "padding": "valid", "data_format": "channels_last", "dilation_rate": [1, 1], "groups": 1, "activation": "linear", "use_bias": false, "kernel_initializer": {"module": "keras.initializers", "class_name": "GlorotUniform", "config": {"seed": null}, "registered_name": null}, "bias_initializer": {"module": "keras.initializers", "class_name": "Zeros", "config": {}, "registered_name": null}, "kernel_regularizer": null, "bias_regularizer": null, "activity_regularizer": null, "kernel_constraint": null, "bias_constraint": null}, "name": "stage2_unit7_conv3", "inbound_nodes": [{"args": [{"class_name": "__keras_tensor__", "config": {"shape": [null, 16, 16, 128], "dtype": "float32", "keras_history": ["stage2_unit7_relu3", 0, 0]}}], "kwargs": {}}]}, {"class_name": "Add", "config": {"name": "add_9", "trainable": true, "dtype": {"module": "keras", "class_name": "DTypePolicy", "config": {"name": "float32"}, "registered_name": null}}, "name": "add_9", "inbound_nodes": [{"args": [[{"class_name": "__keras_tensor__", "config": {"shape": [null, 16, 16, 512], "dtype": "float32", "keras_history": ["stage2_unit7_conv3", 0, 0]}}, {"class_name": "__keras_tensor__", "config": {"shape": [null, 16, 16, 512], "dtype": "float32", "keras_history": ["add_8", 0, 0]}}]], "kwargs": {}}]}, {"class_name": "BatchNormalization", "config": {"name": "stage2_unit8_bn1", "trainable": true, "dtype": {"module": "keras", "class_name": "DTypePolicy", "config": {"name": "float32"}, "registered_name": null}, "axis": -1, "momentum": 0.99, "epsilon": 0.001, "center": true, "scale": true, "beta_initializer": {"module": "keras.initializers", "class_name": "Zeros", "config": {}, "registered_name": null}, "gamma_initializer": {"module": "keras.initializers", "class_name": "Ones", "config": {}, "registered_name": null}, "moving_mean_initializer": {"module": "keras.initializers", "class_name": "Zeros", "config": {}, "registered_name": null}, "moving_variance_initializer": {"module": "keras.initializers", "class_name": "Ones", "config": {}, "registered_name": null}, "beta_regularizer": null, "gamma_regularizer": null, "beta_constraint": null, "gamma_constraint": null, "synchronized": false}, "name": "stage2_unit8_bn1", "inbound_nodes": [{"args": [{"class_name": "__keras_tensor__", "config": {"shape": [null, 16, 16, 512], "dtype": "float32", "keras_history": ["add_9", 0, 0]}}], "kwargs": {"mask": null}}]}, {"class_name": "Activation", "config": {"name": "stage2_unit8_relu1", "trainable": true, "dtype": {"module": "keras", "class_name": "DTypePolicy", "config": {"name": "float32"}, "registered_name": null}, "activation": "relu"}, "name": "stage2_unit8_relu1", "inbound_nodes": [{"args": [{"class_name": "__keras_tensor__", "config": {"shape": [null, 16, 16, 512], "dtype": "float32", "keras_history": ["stage2_unit8_bn1", 0, 0]}}], "kwargs": {}}]}, {"class_name": "Conv2D", "config": {"name": "stage2_unit8_conv1", "trainable": true, "dtype": {"module": "keras", "class_name": "DTypePolicy", "config": {"name": "float32"}, "registered_name": null}, "filters": 128, "kernel_size": [1, 1], "strides": [1, 1], "padding": "valid", "data_format": "channels_last", "dilation_rate": [1, 1], "groups": 1, "activation": "linear", "use_bias": false, "kernel_initializer": {"module": "keras.initializers", "class_name": "GlorotUniform", "config": {"seed": null}, "registered_name": null}, "bias_initializer": {"module": "keras.initializers", "class_name": "Zeros", "config": {}, "registered_name": null}, "kernel_regularizer": null, "bias_regularizer": null, "activity_regularizer": null, "kernel_constraint": null, "bias_constraint": null}, "name": "stage2_unit8_conv1", "inbound_nodes": [{"args": [{"class_name": "__keras_tensor__", "config": {"shape": [null, 16, 16, 512], "dtype": "float32", "keras_history": ["stage2_unit8_relu1", 0, 0]}}], "kwargs": {}}]}, {"class_name": "BatchNormalization", "config": {"name": "stage2_unit8_bn2", "trainable": true, "dtype": {"module": "keras", "class_name": "DTypePolicy", "config": {"name": "float32"}, "registered_name": null}, "axis": -1, "momentum": 0.99, "epsilon": 0.001, "center": true, "scale": true, "beta_initializer": {"module": "keras.initializers", "class_name": "Zeros", "config": {}, "registered_name": null}, "gamma_initializer": {"module": "keras.initializers", "class_name": "Ones", "config": {}, "registered_name": null}, "moving_mean_initializer": {"module": "keras.initializers", "class_name": "Zeros", "config": {}, "registered_name": null}, "moving_variance_initializer": {"module": "keras.initializers", "class_name": "Ones", "config": {}, "registered_name": null}, "beta_regularizer": null, "gamma_regularizer": null, "beta_constraint": null, "gamma_constraint": null, "synchronized": false}, "name": "stage2_unit8_bn2", "inbound_nodes": [{"args": [{"class_name": "__keras_tensor__", "config": {"shape": [null, 16, 16, 128], "dtype": "float32", "keras_history": ["stage2_unit8_conv1", 0, 0]}}], "kwargs": {"mask": null}}]}, {"class_name": "Activation", "config": {"name": "stage2_unit8_relu2", "trainable": true, "dtype": {"module": "keras", "class_name": "DTypePolicy", "config": {"name": "float32"}, "registered_name": null}, "activation": "relu"}, "name": "stage2_unit8_relu2", "inbound_nodes": [{"args": [{"class_name": "__keras_tensor__", "config": {"shape": [null, 16, 16, 128], "dtype": "float32", "keras_history": ["stage2_unit8_bn2", 0, 0]}}], "kwargs": {}}]}, {"class_name": "ZeroPadding2D", "config": {"name": "zero_padding2d_60", "trainable": true, "dtype": {"module": "keras", "class_name": "DTypePolicy", "config": {"name": "float32"}, "registered_name": null}, "padding": [[1, 1], [1, 1]], "data_format": "channels_last"}, "name": "zero_padding2d_60", "inbound_nodes": [{"args": [{"class_name": "__keras_tensor__", "config": {"shape": [null, 16, 16, 128], "dtype": "float32", "keras_history": ["stage2_unit8_relu2", 0, 0]}}], "kwargs": {}}]}, {"class_name": "Conv2D", "config": {"name": "stage2_unit8_conv2", "trainable": true, "dtype": {"module": "keras", "class_name": "DTypePolicy", "config": {"name": "float32"}, "registered_name": null}, "filters": 128, "kernel_size": [3, 3], "strides": [1, 1], "padding": "valid", "data_format": "channels_last", "dilation_rate": [1, 1], "groups": 1, "activation": "linear", "use_bias": false, "kernel_initializer": {"module": "keras.initializers", "class_name": "GlorotUniform", "config": {"seed": null}, "registered_name": null}, "bias_initializer": {"module": "keras.initializers", "class_name": "Zeros", "config": {}, "registered_name": null}, "kernel_regularizer": null, "bias_regularizer": null, "activity_regularizer": null, "kernel_constraint": null, "bias_constraint": null}, "name": "stage2_unit8_conv2", "inbound_nodes": [{"args": [{"class_name": "__keras_tensor__", "config": {"shape": [null, 18, 18, 128], "dtype": "float32", "keras_history": ["zero_padding2d_60", 0, 0]}}], "kwargs": {}}]}, {"class_name": "BatchNormalization", "config": {"name": "stage2_unit8_bn3", "trainable": true, "dtype": {"module": "keras", "class_name": "DTypePolicy", "config": {"name": "float32"}, "registered_name": null}, "axis": -1, "momentum": 0.99, "epsilon": 0.001, "center": true, "scale": true, "beta_initializer": {"module": "keras.initializers", "class_name": "Zeros", "config": {}, "registered_name": null}, "gamma_initializer": {"module": "keras.initializers", "class_name": "Ones", "config": {}, "registered_name": null}, "moving_mean_initializer": {"module": "keras.initializers", "class_name": "Zeros", "config": {}, "registered_name": null}, "moving_variance_initializer": {"module": "keras.initializers", "class_name": "Ones", "config": {}, "registered_name": null}, "beta_regularizer": null, "gamma_regularizer": null, "beta_constraint": null, "gamma_constraint": null, "synchronized": false}, "name": "stage2_unit8_bn3", "inbound_nodes": [{"args": [{"class_name": "__keras_tensor__", "config": {"shape": [null, 16, 16, 128], "dtype": "float32", "keras_history": ["stage2_unit8_conv2", 0, 0]}}], "kwargs": {"mask": null}}]}, {"class_name": "Activation", "config": {"name": "stage2_unit8_relu3", "trainable": true, "dtype": {"module": "keras", "class_name": "DTypePolicy", "config": {"name": "float32"}, "registered_name": null}, "activation": "relu"}, "name": "stage2_unit8_relu3", "inbound_nodes": [{"args": [{"class_name": "__keras_tensor__", "config": {"shape": [null, 16, 16, 128], "dtype": "float32", "keras_history": ["stage2_unit8_bn3", 0, 0]}}], "kwargs": {}}]}, {"class_name": "Conv2D", "config": {"name": "stage2_unit8_conv3", "trainable": true, "dtype": {"module": "keras", "class_name": "DTypePolicy", "config": {"name": "float32"}, "registered_name": null}, "filters": 512, "kernel_size": [1, 1], "strides": [1, 1], "padding": "valid", "data_format": "channels_last", "dilation_rate": [1, 1], "groups": 1, "activation": "linear", "use_bias": false, "kernel_initializer": {"module": "keras.initializers", "class_name": "GlorotUniform", "config": {"seed": null}, "registered_name": null}, "bias_initializer": {"module": "keras.initializers", "class_name": "Zeros", "config": {}, "registered_name": null}, "kernel_regularizer": null, "bias_regularizer": null, "activity_regularizer": null, "kernel_constraint": null, "bias_constraint": null}, "name": "stage2_unit8_conv3", "inbound_nodes": [{"args": [{"class_name": "__keras_tensor__", "config": {"shape": [null, 16, 16, 128], "dtype": "float32", "keras_history": ["stage2_unit8_relu3", 0, 0]}}], "kwargs": {}}]}, {"class_name": "Add", "config": {"name": "add_10", "trainable": true, "dtype": {"module": "keras", "class_name": "DTypePolicy", "config": {"name": "float32"}, "registered_name": null}}, "name": "add_10", "inbound_nodes": [{"args": [[{"class_name": "__keras_tensor__", "config": {"shape": [null, 16, 16, 512], "dtype": "float32", "keras_history": ["stage2_unit8_conv3", 0, 0]}}, {"class_name": "__keras_tensor__", "config": {"shape": [null, 16, 16, 512], "dtype": "float32", "keras_history": ["add_9", 0, 0]}}]], "kwargs": {}}]}, {"class_name": "BatchNormalization", "config": {"name": "stage3_unit1_bn1", "trainable": true, "dtype": {"module": "keras", "class_name": "DTypePolicy", "config": {"name": "float32"}, "registered_name": null}, "axis": -1, "momentum": 0.99, "epsilon": 0.001, "center": true, "scale": true, "beta_initializer": {"module": "keras.initializers", "class_name": "Zeros", "config": {}, "registered_name": null}, "gamma_initializer": {"module": "keras.initializers", "class_name": "Ones", "config": {}, "registered_name": null}, "moving_mean_initializer": {"module": "keras.initializers", "class_name": "Zeros", "config": {}, "registered_name": null}, "moving_variance_initializer": {"module": "keras.initializers", "class_name": "Ones", "config": {}, "registered_name": null}, "beta_regularizer": null, "gamma_regularizer": null, "beta_constraint": null, "gamma_constraint": null, "synchronized": false}, "name": "stage3_unit1_bn1", "inbound_nodes": [{"args": [{"class_name": "__keras_tensor__", "config": {"shape": [null, 16, 16, 512], "dtype": "float32", "keras_history": ["add_10", 0, 0]}}], "kwargs": {"mask": null}}]}, {"class_name": "Activation", "config": {"name": "stage3_unit1_relu1", "trainable": true, "dtype": {"module": "keras", "class_name": "DTypePolicy", "config": {"name": "float32"}, "registered_name": null}, "activation": "relu"}, "name": "stage3_unit1_relu1", "inbound_nodes": [{"args": [{"class_name": "__keras_tensor__", "config": {"shape": [null, 16, 16, 512], "dtype": "float32", "keras_history": ["stage3_unit1_bn1", 0, 0]}}], "kwargs": {}}]}, {"class_name": "Conv2D", "config": {"name": "stage3_unit1_conv1", "trainable": true, "dtype": {"module": "keras", "class_name": "DTypePolicy", "config": {"name": "float32"}, "registered_name": null}, "filters": 256, "kernel_size": [1, 1], "strides": [2, 2], "padding": "valid", "data_format": "channels_last", "dilation_rate": [1, 1], "groups": 1, "activation": "linear", "use_bias": false, "kernel_initializer": {"module": "keras.initializers", "class_name": "GlorotUniform", "config": {"seed": null}, "registered_name": null}, "bias_initializer": {"module": "keras.initializers", "class_name": "Zeros", "config": {}, "registered_name": null}, "kernel_regularizer": null, "bias_regularizer": null, "activity_regularizer": null, "kernel_constraint": null, "bias_constraint": null}, "name": "stage3_unit1_conv1", "inbound_nodes": [{"args": [{"class_name": "__keras_tensor__", "config": {"shape": [null, 16, 16, 512], "dtype": "float32", "keras_history": ["stage3_unit1_relu1", 0, 0]}}], "kwargs": {}}]}, {"class_name": "BatchNormalization", "config": {"name": "stage3_unit1_bn2", "trainable": true, "dtype": {"module": "keras", "class_name": "DTypePolicy", "config": {"name": "float32"}, "registered_name": null}, "axis": -1, "momentum": 0.99, "epsilon": 0.001, "center": true, "scale": true, "beta_initializer": {"module": "keras.initializers", "class_name": "Zeros", "config": {}, "registered_name": null}, "gamma_initializer": {"module": "keras.initializers", "class_name": "Ones", "config": {}, "registered_name": null}, "moving_mean_initializer": {"module": "keras.initializers", "class_name": "Zeros", "config": {}, "registered_name": null}, "moving_variance_initializer": {"module": "keras.initializers", "class_name": "Ones", "config": {}, "registered_name": null}, "beta_regularizer": null, "gamma_regularizer": null, "beta_constraint": null, "gamma_constraint": null, "synchronized": false}, "name": "stage3_unit1_bn2", "inbound_nodes": [{"args": [{"class_name": "__keras_tensor__", "config": {"shape": [null, 8, 8, 256], "dtype": "float32", "keras_history": ["stage3_unit1_conv1", 0, 0]}}], "kwargs": {"mask": null}}]}, {"class_name": "Activation", "config": {"name": "stage3_unit1_relu2", "trainable": true, "dtype": {"module": "keras", "class_name": "DTypePolicy", "config": {"name": "float32"}, "registered_name": null}, "activation": "relu"}, "name": "stage3_unit1_relu2", "inbound_nodes": [{"args": [{"class_name": "__keras_tensor__", "config": {"shape": [null, 8, 8, 256], "dtype": "float32", "keras_history": ["stage3_unit1_bn2", 0, 0]}}], "kwargs": {}}]}, {"class_name": "ZeroPadding2D", "config": {"name": "zero_padding2d_61", "trainable": true, "dtype": {"module": "keras", "class_name": "DTypePolicy", "config": {"name": "float32"}, "registered_name": null}, "padding": [[1, 1], [1, 1]], "data_format": "channels_last"}, "name": "zero_padding2d_61", "inbound_nodes": [{"args": [{"class_name": "__keras_tensor__", "config": {"shape": [null, 8, 8, 256], "dtype": "float32", "keras_history": ["stage3_unit1_relu2", 0, 0]}}], "kwargs": {}}]}, {"class_name": "Conv2D", "config": {"name": "stage3_unit1_conv2", "trainable": true, "dtype": {"module": "keras", "class_name": "DTypePolicy", "config": {"name": "float32"}, "registered_name": null}, "filters": 256, "kernel_size": [3, 3], "strides": [1, 1], "padding": "valid", "data_format": "channels_last", "dilation_rate": [1, 1], "groups": 1, "activation": "linear", "use_bias": false, "kernel_initializer": {"module": "keras.initializers", "class_name": "GlorotUniform", "config": {"seed": null}, "registered_name": null}, "bias_initializer": {"module": "keras.initializers", "class_name": "Zeros", "config": {}, "registered_name": null}, "kernel_regularizer": null, "bias_regularizer": null, "activity_regularizer": null, "kernel_constraint": null, "bias_constraint": null}, "name": "stage3_unit1_conv2", "inbound_nodes": [{"args": [{"class_name": "__keras_tensor__", "config": {"shape": [null, 10, 10, 256], "dtype": "float32", "keras_history": ["zero_padding2d_61", 0, 0]}}], "kwargs": {}}]}, {"class_name": "BatchNormalization", "config": {"name": "stage3_unit1_bn3", "trainable": true, "dtype": {"module": "keras", "class_name": "DTypePolicy", "config": {"name": "float32"}, "registered_name": null}, "axis": -1, "momentum": 0.99, "epsilon": 0.001, "center": true, "scale": true, "beta_initializer": {"module": "keras.initializers", "class_name": "Zeros", "config": {}, "registered_name": null}, "gamma_initializer": {"module": "keras.initializers", "class_name": "Ones", "config": {}, "registered_name": null}, "moving_mean_initializer": {"module": "keras.initializers", "class_name": "Zeros", "config": {}, "registered_name": null}, "moving_variance_initializer": {"module": "keras.initializers", "class_name": "Ones", "config": {}, "registered_name": null}, "beta_regularizer": null, "gamma_regularizer": null, "beta_constraint": null, "gamma_constraint": null, "synchronized": false}, "name": "stage3_unit1_bn3", "inbound_nodes": [{"args": [{"class_name": "__keras_tensor__", "config": {"shape": [null, 8, 8, 256], "dtype": "float32", "keras_history": ["stage3_unit1_conv2", 0, 0]}}], "kwargs": {"mask": null}}]}, {"class_name": "Activation", "config": {"name": "stage3_unit1_relu3", "trainable": true, "dtype": {"module": "keras", "class_name": "DTypePolicy", "config": {"name": "float32"}, "registered_name": null}, "activation": "relu"}, "name": "stage3_unit1_relu3", "inbound_nodes": [{"args": [{"class_name": "__keras_tensor__", "config": {"shape": [null, 8, 8, 256], "dtype": "float32", "keras_history": ["stage3_unit1_bn3", 0, 0]}}], "kwargs": {}}]}, {"class_name": "Conv2D", "config": {"name": "stage3_unit1_conv3", "trainable": true, "dtype": {"module": "keras", "class_name": "DTypePolicy", "config": {"name": "float32"}, "registered_name": null}, "filters": 1024, "kernel_size": [1, 1], "strides": [1, 1], "padding": "valid", "data_format": "channels_last", "dilation_rate": [1, 1], "groups": 1, "activation": "linear", "use_bias": false, "kernel_initializer": {"module": "keras.initializers", "class_name": "GlorotUniform", "config": {"seed": null}, "registered_name": null}, "bias_initializer": {"module": "keras.initializers", "class_name": "Zeros", "config": {}, "registered_name": null}, "kernel_regularizer": null, "bias_regularizer": null, "activity_regularizer": null, "kernel_constraint": null, "bias_constraint": null}, "name": "stage3_unit1_conv3", "inbound_nodes": [{"args": [{"class_name": "__keras_tensor__", "config": {"shape": [null, 8, 8, 256], "dtype": "float32", "keras_history": ["stage3_unit1_relu3", 0, 0]}}], "kwargs": {}}]}, {"class_name": "Conv2D", "config": {"name": "stage3_unit1_sc", "trainable": true, "dtype": {"module": "keras", "class_name": "DTypePolicy", "config": {"name": "float32"}, "registered_name": null}, "filters": 1024, "kernel_size": [1, 1], "strides": [2, 2], "padding": "valid", "data_format": "channels_last", "dilation_rate": [1, 1], "groups": 1, "activation": "linear", "use_bias": false, "kernel_initializer": {"module": "keras.initializers", "class_name": "GlorotUniform", "config": {"seed": null}, "registered_name": null}, "bias_initializer": {"module": "keras.initializers", "class_name": "Zeros", "config": {}, "registered_name": null}, "kernel_regularizer": null, "bias_regularizer": null, "activity_regularizer": null, "kernel_constraint": null, "bias_constraint": null}, "name": "stage3_unit1_sc", "inbound_nodes": [{"args": [{"class_name": "__keras_tensor__", "config": {"shape": [null, 16, 16, 512], "dtype": "float32", "keras_history": ["add_10", 0, 0]}}], "kwargs": {}}]}, {"class_name": "Add", "config": {"name": "add_11", "trainable": true, "dtype": {"module": "keras", "class_name": "DTypePolicy", "config": {"name": "float32"}, "registered_name": null}}, "name": "add_11", "inbound_nodes": [{"args": [[{"class_name": "__keras_tensor__", "config": {"shape": [null, 8, 8, 1024], "dtype": "float32", "keras_history": ["stage3_unit1_conv3", 0, 0]}}, {"class_name": "__keras_tensor__", "config": {"shape": [null, 8, 8, 1024], "dtype": "float32", "keras_history": ["stage3_unit1_sc", 0, 0]}}]], "kwargs": {}}]}, {"class_name": "BatchNormalization", "config": {"name": "stage3_unit2_bn1", "trainable": true, "dtype": {"module": "keras", "class_name": "DTypePolicy", "config": {"name": "float32"}, "registered_name": null}, "axis": -1, "momentum": 0.99, "epsilon": 0.001, "center": true, "scale": true, "beta_initializer": {"module": "keras.initializers", "class_name": "Zeros", "config": {}, "registered_name": null}, "gamma_initializer": {"module": "keras.initializers", "class_name": "Ones", "config": {}, "registered_name": null}, "moving_mean_initializer": {"module": "keras.initializers", "class_name": "Zeros", "config": {}, "registered_name": null}, "moving_variance_initializer": {"module": "keras.initializers", "class_name": "Ones", "config": {}, "registered_name": null}, "beta_regularizer": null, "gamma_regularizer": null, "beta_constraint": null, "gamma_constraint": null, "synchronized": false}, "name": "stage3_unit2_bn1", "inbound_nodes": [{"args": [{"class_name": "__keras_tensor__", "config": {"shape": [null, 8, 8, 1024], "dtype": "float32", "keras_history": ["add_11", 0, 0]}}], "kwargs": {"mask": null}}]}, {"class_name": "Activation", "config": {"name": "stage3_unit2_relu1", "trainable": true, "dtype": {"module": "keras", "class_name": "DTypePolicy", "config": {"name": "float32"}, "registered_name": null}, "activation": "relu"}, "name": "stage3_unit2_relu1", "inbound_nodes": [{"args": [{"class_name": "__keras_tensor__", "config": {"shape": [null, 8, 8, 1024], "dtype": "float32", "keras_history": ["stage3_unit2_bn1", 0, 0]}}], "kwargs": {}}]}, {"class_name": "Conv2D", "config": {"name": "stage3_unit2_conv1", "trainable": true, "dtype": {"module": "keras", "class_name": "DTypePolicy", "config": {"name": "float32"}, "registered_name": null}, "filters": 256, "kernel_size": [1, 1], "strides": [1, 1], "padding": "valid", "data_format": "channels_last", "dilation_rate": [1, 1], "groups": 1, "activation": "linear", "use_bias": false, "kernel_initializer": {"module": "keras.initializers", "class_name": "GlorotUniform", "config": {"seed": null}, "registered_name": null}, "bias_initializer": {"module": "keras.initializers", "class_name": "Zeros", "config": {}, "registered_name": null}, "kernel_regularizer": null, "bias_regularizer": null, "activity_regularizer": null, "kernel_constraint": null, "bias_constraint": null}, "name": "stage3_unit2_conv1", "inbound_nodes": [{"args": [{"class_name": "__keras_tensor__", "config": {"shape": [null, 8, 8, 1024], "dtype": "float32", "keras_history": ["stage3_unit2_relu1", 0, 0]}}], "kwargs": {}}]}, {"class_name": "BatchNormalization", "config": {"name": "stage3_unit2_bn2", "trainable": true, "dtype": {"module": "keras", "class_name": "DTypePolicy", "config": {"name": "float32"}, "registered_name": null}, "axis": -1, "momentum": 0.99, "epsilon": 0.001, "center": true, "scale": true, "beta_initializer": {"module": "keras.initializers", "class_name": "Zeros", "config": {}, "registered_name": null}, "gamma_initializer": {"module": "keras.initializers", "class_name": "Ones", "config": {}, "registered_name": null}, "moving_mean_initializer": {"module": "keras.initializers", "class_name": "Zeros", "config": {}, "registered_name": null}, "moving_variance_initializer": {"module": "keras.initializers", "class_name": "Ones", "config": {}, "registered_name": null}, "beta_regularizer": null, "gamma_regularizer": null, "beta_constraint": null, "gamma_constraint": null, "synchronized": false}, "name": "stage3_unit2_bn2", "inbound_nodes": [{"args": [{"class_name": "__keras_tensor__", "config": {"shape": [null, 8, 8, 256], "dtype": "float32", "keras_history": ["stage3_unit2_conv1", 0, 0]}}], "kwargs": {"mask": null}}]}, {"class_name": "Activation", "config": {"name": "stage3_unit2_relu2", "trainable": true, "dtype": {"module": "keras", "class_name": "DTypePolicy", "config": {"name": "float32"}, "registered_name": null}, "activation": "relu"}, "name": "stage3_unit2_relu2", "inbound_nodes": [{"args": [{"class_name": "__keras_tensor__", "config": {"shape": [null, 8, 8, 256], "dtype": "float32", "keras_history": ["stage3_unit2_bn2", 0, 0]}}], "kwargs": {}}]}, {"class_name": "ZeroPadding2D", "config": {"name": "zero_padding2d_62", "trainable": true, "dtype": {"module": "keras", "class_name": "DTypePolicy", "config": {"name": "float32"}, "registered_name": null}, "padding": [[1, 1], [1, 1]], "data_format": "channels_last"}, "name": "zero_padding2d_62", "inbound_nodes": [{"args": [{"class_name": "__keras_tensor__", "config": {"shape": [null, 8, 8, 256], "dtype": "float32", "keras_history": ["stage3_unit2_relu2", 0, 0]}}], "kwargs": {}}]}, {"class_name": "Conv2D", "config": {"name": "stage3_unit2_conv2", "trainable": true, "dtype": {"module": "keras", "class_name": "DTypePolicy", "config": {"name": "float32"}, "registered_name": null}, "filters": 256, "kernel_size": [3, 3], "strides": [1, 1], "padding": "valid", "data_format": "channels_last", "dilation_rate": [1, 1], "groups": 1, "activation": "linear", "use_bias": false, "kernel_initializer": {"module": "keras.initializers", "class_name": "GlorotUniform", "config": {"seed": null}, "registered_name": null}, "bias_initializer": {"module": "keras.initializers", "class_name": "Zeros", "config": {}, "registered_name": null}, "kernel_regularizer": null, "bias_regularizer": null, "activity_regularizer": null, "kernel_constraint": null, "bias_constraint": null}, "name": "stage3_unit2_conv2", "inbound_nodes": [{"args": [{"class_name": "__keras_tensor__", "config": {"shape": [null, 10, 10, 256], "dtype": "float32", "keras_history": ["zero_padding2d_62", 0, 0]}}], "kwargs": {}}]}, {"class_name": "BatchNormalization", "config": {"name": "stage3_unit2_bn3", "trainable": true, "dtype": {"module": "keras", "class_name": "DTypePolicy", "config": {"name": "float32"}, "registered_name": null}, "axis": -1, "momentum": 0.99, "epsilon": 0.001, "center": true, "scale": true, "beta_initializer": {"module": "keras.initializers", "class_name": "Zeros", "config": {}, "registered_name": null}, "gamma_initializer": {"module": "keras.initializers", "class_name": "Ones", "config": {}, "registered_name": null}, "moving_mean_initializer": {"module": "keras.initializers", "class_name": "Zeros", "config": {}, "registered_name": null}, "moving_variance_initializer": {"module": "keras.initializers", "class_name": "Ones", "config": {}, "registered_name": null}, "beta_regularizer": null, "gamma_regularizer": null, "beta_constraint": null, "gamma_constraint": null, "synchronized": false}, "name": "stage3_unit2_bn3", "inbound_nodes": [{"args": [{"class_name": "__keras_tensor__", "config": {"shape": [null, 8, 8, 256], "dtype": "float32", "keras_history": ["stage3_unit2_conv2", 0, 0]}}], "kwargs": {"mask": null}}]}, {"class_name": "Activation", "config": {"name": "stage3_unit2_relu3", "trainable": true, "dtype": {"module": "keras", "class_name": "DTypePolicy", "config": {"name": "float32"}, "registered_name": null}, "activation": "relu"}, "name": "stage3_unit2_relu3", "inbound_nodes": [{"args": [{"class_name": "__keras_tensor__", "config": {"shape": [null, 8, 8, 256], "dtype": "float32", "keras_history": ["stage3_unit2_bn3", 0, 0]}}], "kwargs": {}}]}, {"class_name": "Conv2D", "config": {"name": "stage3_unit2_conv3", "trainable": true, "dtype": {"module": "keras", "class_name": "DTypePolicy", "config": {"name": "float32"}, "registered_name": null}, "filters": 1024, "kernel_size": [1, 1], "strides": [1, 1], "padding": "valid", "data_format": "channels_last", "dilation_rate": [1, 1], "groups": 1, "activation": "linear", "use_bias": false, "kernel_initializer": {"module": "keras.initializers", "class_name": "GlorotUniform", "config": {"seed": null}, "registered_name": null}, "bias_initializer": {"module": "keras.initializers", "class_name": "Zeros", "config": {}, "registered_name": null}, "kernel_regularizer": null, "bias_regularizer": null, "activity_regularizer": null, "kernel_constraint": null, "bias_constraint": null}, "name": "stage3_unit2_conv3", "inbound_nodes": [{"args": [{"class_name": "__keras_tensor__", "config": {"shape": [null, 8, 8, 256], "dtype": "float32", "keras_history": ["stage3_unit2_relu3", 0, 0]}}], "kwargs": {}}]}, {"class_name": "Add", "config": {"name": "add_12", "trainable": true, "dtype": {"module": "keras", "class_name": "DTypePolicy", "config": {"name": "float32"}, "registered_name": null}}, "name": "add_12", "inbound_nodes": [{"args": [[{"class_name": "__keras_tensor__", "config": {"shape": [null, 8, 8, 1024], "dtype": "float32", "keras_history": ["stage3_unit2_conv3", 0, 0]}}, {"class_name": "__keras_tensor__", "config": {"shape": [null, 8, 8, 1024], "dtype": "float32", "keras_history": ["add_11", 0, 0]}}]], "kwargs": {}}]}, {"class_name": "BatchNormalization", "config": {"name": "stage3_unit3_bn1", "trainable": true, "dtype": {"module": "keras", "class_name": "DTypePolicy", "config": {"name": "float32"}, "registered_name": null}, "axis": -1, "momentum": 0.99, "epsilon": 0.001, "center": true, "scale": true, "beta_initializer": {"module": "keras.initializers", "class_name": "Zeros", "config": {}, "registered_name": null}, "gamma_initializer": {"module": "keras.initializers", "class_name": "Ones", "config": {}, "registered_name": null}, "moving_mean_initializer": {"module": "keras.initializers", "class_name": "Zeros", "config": {}, "registered_name": null}, "moving_variance_initializer": {"module": "keras.initializers", "class_name": "Ones", "config": {}, "registered_name": null}, "beta_regularizer": null, "gamma_regularizer": null, "beta_constraint": null, "gamma_constraint": null, "synchronized": false}, "name": "stage3_unit3_bn1", "inbound_nodes": [{"args": [{"class_name": "__keras_tensor__", "config": {"shape": [null, 8, 8, 1024], "dtype": "float32", "keras_history": ["add_12", 0, 0]}}], "kwargs": {"mask": null}}]}, {"class_name": "Activation", "config": {"name": "stage3_unit3_relu1", "trainable": true, "dtype": {"module": "keras", "class_name": "DTypePolicy", "config": {"name": "float32"}, "registered_name": null}, "activation": "relu"}, "name": "stage3_unit3_relu1", "inbound_nodes": [{"args": [{"class_name": "__keras_tensor__", "config": {"shape": [null, 8, 8, 1024], "dtype": "float32", "keras_history": ["stage3_unit3_bn1", 0, 0]}}], "kwargs": {}}]}, {"class_name": "Conv2D", "config": {"name": "stage3_unit3_conv1", "trainable": true, "dtype": {"module": "keras", "class_name": "DTypePolicy", "config": {"name": "float32"}, "registered_name": null}, "filters": 256, "kernel_size": [1, 1], "strides": [1, 1], "padding": "valid", "data_format": "channels_last", "dilation_rate": [1, 1], "groups": 1, "activation": "linear", "use_bias": false, "kernel_initializer": {"module": "keras.initializers", "class_name": "GlorotUniform", "config": {"seed": null}, "registered_name": null}, "bias_initializer": {"module": "keras.initializers", "class_name": "Zeros", "config": {}, "registered_name": null}, "kernel_regularizer": null, "bias_regularizer": null, "activity_regularizer": null, "kernel_constraint": null, "bias_constraint": null}, "name": "stage3_unit3_conv1", "inbound_nodes": [{"args": [{"class_name": "__keras_tensor__", "config": {"shape": [null, 8, 8, 1024], "dtype": "float32", "keras_history": ["stage3_unit3_relu1", 0, 0]}}], "kwargs": {}}]}, {"class_name": "BatchNormalization", "config": {"name": "stage3_unit3_bn2", "trainable": true, "dtype": {"module": "keras", "class_name": "DTypePolicy", "config": {"name": "float32"}, "registered_name": null}, "axis": -1, "momentum": 0.99, "epsilon": 0.001, "center": true, "scale": true, "beta_initializer": {"module": "keras.initializers", "class_name": "Zeros", "config": {}, "registered_name": null}, "gamma_initializer": {"module": "keras.initializers", "class_name": "Ones", "config": {}, "registered_name": null}, "moving_mean_initializer": {"module": "keras.initializers", "class_name": "Zeros", "config": {}, "registered_name": null}, "moving_variance_initializer": {"module": "keras.initializers", "class_name": "Ones", "config": {}, "registered_name": null}, "beta_regularizer": null, "gamma_regularizer": null, "beta_constraint": null, "gamma_constraint": null, "synchronized": false}, "name": "stage3_unit3_bn2", "inbound_nodes": [{"args": [{"class_name": "__keras_tensor__", "config": {"shape": [null, 8, 8, 256], "dtype": "float32", "keras_history": ["stage3_unit3_conv1", 0, 0]}}], "kwargs": {"mask": null}}]}, {"class_name": "Activation", "config": {"name": "stage3_unit3_relu2", "trainable": true, "dtype": {"module": "keras", "class_name": "DTypePolicy", "config": {"name": "float32"}, "registered_name": null}, "activation": "relu"}, "name": "stage3_unit3_relu2", "inbound_nodes": [{"args": [{"class_name": "__keras_tensor__", "config": {"shape": [null, 8, 8, 256], "dtype": "float32", "keras_history": ["stage3_unit3_bn2", 0, 0]}}], "kwargs": {}}]}, {"class_name": "ZeroPadding2D", "config": {"name": "zero_padding2d_63", "trainable": true, "dtype": {"module": "keras", "class_name": "DTypePolicy", "config": {"name": "float32"}, "registered_name": null}, "padding": [[1, 1], [1, 1]], "data_format": "channels_last"}, "name": "zero_padding2d_63", "inbound_nodes": [{"args": [{"class_name": "__keras_tensor__", "config": {"shape": [null, 8, 8, 256], "dtype": "float32", "keras_history": ["stage3_unit3_relu2", 0, 0]}}], "kwargs": {}}]}, {"class_name": "Conv2D", "config": {"name": "stage3_unit3_conv2", "trainable": true, "dtype": {"module": "keras", "class_name": "DTypePolicy", "config": {"name": "float32"}, "registered_name": null}, "filters": 256, "kernel_size": [3, 3], "strides": [1, 1], "padding": "valid", "data_format": "channels_last", "dilation_rate": [1, 1], "groups": 1, "activation": "linear", "use_bias": false, "kernel_initializer": {"module": "keras.initializers", "class_name": "GlorotUniform", "config": {"seed": null}, "registered_name": null}, "bias_initializer": {"module": "keras.initializers", "class_name": "Zeros", "config": {}, "registered_name": null}, "kernel_regularizer": null, "bias_regularizer": null, "activity_regularizer": null, "kernel_constraint": null, "bias_constraint": null}, "name": "stage3_unit3_conv2", "inbound_nodes": [{"args": [{"class_name": "__keras_tensor__", "config": {"shape": [null, 10, 10, 256], "dtype": "float32", "keras_history": ["zero_padding2d_63", 0, 0]}}], "kwargs": {}}]}, {"class_name": "BatchNormalization", "config": {"name": "stage3_unit3_bn3", "trainable": true, "dtype": {"module": "keras", "class_name": "DTypePolicy", "config": {"name": "float32"}, "registered_name": null}, "axis": -1, "momentum": 0.99, "epsilon": 0.001, "center": true, "scale": true, "beta_initializer": {"module": "keras.initializers", "class_name": "Zeros", "config": {}, "registered_name": null}, "gamma_initializer": {"module": "keras.initializers", "class_name": "Ones", "config": {}, "registered_name": null}, "moving_mean_initializer": {"module": "keras.initializers", "class_name": "Zeros", "config": {}, "registered_name": null}, "moving_variance_initializer": {"module": "keras.initializers", "class_name": "Ones", "config": {}, "registered_name": null}, "beta_regularizer": null, "gamma_regularizer": null, "beta_constraint": null, "gamma_constraint": null, "synchronized": false}, "name": "stage3_unit3_bn3", "inbound_nodes": [{"args": [{"class_name": "__keras_tensor__", "config": {"shape": [null, 8, 8, 256], "dtype": "float32", "keras_history": ["stage3_unit3_conv2", 0, 0]}}], "kwargs": {"mask": null}}]}, {"class_name": "Activation", "config": {"name": "stage3_unit3_relu3", "trainable": true, "dtype": {"module": "keras", "class_name": "DTypePolicy", "config": {"name": "float32"}, "registered_name": null}, "activation": "relu"}, "name": "stage3_unit3_relu3", "inbound_nodes": [{"args": [{"class_name": "__keras_tensor__", "config": {"shape": [null, 8, 8, 256], "dtype": "float32", "keras_history": ["stage3_unit3_bn3", 0, 0]}}], "kwargs": {}}]}, {"class_name": "Conv2D", "config": {"name": "stage3_unit3_conv3", "trainable": true, "dtype": {"module": "keras", "class_name": "DTypePolicy", "config": {"name": "float32"}, "registered_name": null}, "filters": 1024, "kernel_size": [1, 1], "strides": [1, 1], "padding": "valid", "data_format": "channels_last", "dilation_rate": [1, 1], "groups": 1, "activation": "linear", "use_bias": false, "kernel_initializer": {"module": "keras.initializers", "class_name": "GlorotUniform", "config": {"seed": null}, "registered_name": null}, "bias_initializer": {"module": "keras.initializers", "class_name": "Zeros", "config": {}, "registered_name": null}, "kernel_regularizer": null, "bias_regularizer": null, "activity_regularizer": null, "kernel_constraint": null, "bias_constraint": null}, "name": "stage3_unit3_conv3", "inbound_nodes": [{"args": [{"class_name": "__keras_tensor__", "config": {"shape": [null, 8, 8, 256], "dtype": "float32", "keras_history": ["stage3_unit3_relu3", 0, 0]}}], "kwargs": {}}]}, {"class_name": "Add", "config": {"name": "add_13", "trainable": true, "dtype": {"module": "keras", "class_name": "DTypePolicy", "config": {"name": "float32"}, "registered_name": null}}, "name": "add_13", "inbound_nodes": [{"args": [[{"class_name": "__keras_tensor__", "config": {"shape": [null, 8, 8, 1024], "dtype": "float32", "keras_history": ["stage3_unit3_conv3", 0, 0]}}, {"class_name": "__keras_tensor__", "config": {"shape": [null, 8, 8, 1024], "dtype": "float32", "keras_history": ["add_12", 0, 0]}}]], "kwargs": {}}]}, {"class_name": "BatchNormalization", "config": {"name": "stage3_unit4_bn1", "trainable": true, "dtype": {"module": "keras", "class_name": "DTypePolicy", "config": {"name": "float32"}, "registered_name": null}, "axis": -1, "momentum": 0.99, "epsilon": 0.001, "center": true, "scale": true, "beta_initializer": {"module": "keras.initializers", "class_name": "Zeros", "config": {}, "registered_name": null}, "gamma_initializer": {"module": "keras.initializers", "class_name": "Ones", "config": {}, "registered_name": null}, "moving_mean_initializer": {"module": "keras.initializers", "class_name": "Zeros", "config": {}, "registered_name": null}, "moving_variance_initializer": {"module": "keras.initializers", "class_name": "Ones", "config": {}, "registered_name": null}, "beta_regularizer": null, "gamma_regularizer": null, "beta_constraint": null, "gamma_constraint": null, "synchronized": false}, "name": "stage3_unit4_bn1", "inbound_nodes": [{"args": [{"class_name": "__keras_tensor__", "config": {"shape": [null, 8, 8, 1024], "dtype": "float32", "keras_history": ["add_13", 0, 0]}}], "kwargs": {"mask": null}}]}, {"class_name": "Activation", "config": {"name": "stage3_unit4_relu1", "trainable": true, "dtype": {"module": "keras", "class_name": "DTypePolicy", "config": {"name": "float32"}, "registered_name": null}, "activation": "relu"}, "name": "stage3_unit4_relu1", "inbound_nodes": [{"args": [{"class_name": "__keras_tensor__", "config": {"shape": [null, 8, 8, 1024], "dtype": "float32", "keras_history": ["stage3_unit4_bn1", 0, 0]}}], "kwargs": {}}]}, {"class_name": "Conv2D", "config": {"name": "stage3_unit4_conv1", "trainable": true, "dtype": {"module": "keras", "class_name": "DTypePolicy", "config": {"name": "float32"}, "registered_name": null}, "filters": 256, "kernel_size": [1, 1], "strides": [1, 1], "padding": "valid", "data_format": "channels_last", "dilation_rate": [1, 1], "groups": 1, "activation": "linear", "use_bias": false, "kernel_initializer": {"module": "keras.initializers", "class_name": "GlorotUniform", "config": {"seed": null}, "registered_name": null}, "bias_initializer": {"module": "keras.initializers", "class_name": "Zeros", "config": {}, "registered_name": null}, "kernel_regularizer": null, "bias_regularizer": null, "activity_regularizer": null, "kernel_constraint": null, "bias_constraint": null}, "name": "stage3_unit4_conv1", "inbound_nodes": [{"args": [{"class_name": "__keras_tensor__", "config": {"shape": [null, 8, 8, 1024], "dtype": "float32", "keras_history": ["stage3_unit4_relu1", 0, 0]}}], "kwargs": {}}]}, {"class_name": "BatchNormalization", "config": {"name": "stage3_unit4_bn2", "trainable": true, "dtype": {"module": "keras", "class_name": "DTypePolicy", "config": {"name": "float32"}, "registered_name": null}, "axis": -1, "momentum": 0.99, "epsilon": 0.001, "center": true, "scale": true, "beta_initializer": {"module": "keras.initializers", "class_name": "Zeros", "config": {}, "registered_name": null}, "gamma_initializer": {"module": "keras.initializers", "class_name": "Ones", "config": {}, "registered_name": null}, "moving_mean_initializer": {"module": "keras.initializers", "class_name": "Zeros", "config": {}, "registered_name": null}, "moving_variance_initializer": {"module": "keras.initializers", "class_name": "Ones", "config": {}, "registered_name": null}, "beta_regularizer": null, "gamma_regularizer": null, "beta_constraint": null, "gamma_constraint": null, "synchronized": false}, "name": "stage3_unit4_bn2", "inbound_nodes": [{"args": [{"class_name": "__keras_tensor__", "config": {"shape": [null, 8, 8, 256], "dtype": "float32", "keras_history": ["stage3_unit4_conv1", 0, 0]}}], "kwargs": {"mask": null}}]}, {"class_name": "Activation", "config": {"name": "stage3_unit4_relu2", "trainable": true, "dtype": {"module": "keras", "class_name": "DTypePolicy", "config": {"name": "float32"}, "registered_name": null}, "activation": "relu"}, "name": "stage3_unit4_relu2", "inbound_nodes": [{"args": [{"class_name": "__keras_tensor__", "config": {"shape": [null, 8, 8, 256], "dtype": "float32", "keras_history": ["stage3_unit4_bn2", 0, 0]}}], "kwargs": {}}]}, {"class_name": "ZeroPadding2D", "config": {"name": "zero_padding2d_64", "trainable": true, "dtype": {"module": "keras", "class_name": "DTypePolicy", "config": {"name": "float32"}, "registered_name": null}, "padding": [[1, 1], [1, 1]], "data_format": "channels_last"}, "name": "zero_padding2d_64", "inbound_nodes": [{"args": [{"class_name": "__keras_tensor__", "config": {"shape": [null, 8, 8, 256], "dtype": "float32", "keras_history": ["stage3_unit4_relu2", 0, 0]}}], "kwargs": {}}]}, {"class_name": "Conv2D", "config": {"name": "stage3_unit4_conv2", "trainable": true, "dtype": {"module": "keras", "class_name": "DTypePolicy", "config": {"name": "float32"}, "registered_name": null}, "filters": 256, "kernel_size": [3, 3], "strides": [1, 1], "padding": "valid", "data_format": "channels_last", "dilation_rate": [1, 1], "groups": 1, "activation": "linear", "use_bias": false, "kernel_initializer": {"module": "keras.initializers", "class_name": "GlorotUniform", "config": {"seed": null}, "registered_name": null}, "bias_initializer": {"module": "keras.initializers", "class_name": "Zeros", "config": {}, "registered_name": null}, "kernel_regularizer": null, "bias_regularizer": null, "activity_regularizer": null, "kernel_constraint": null, "bias_constraint": null}, "name": "stage3_unit4_conv2", "inbound_nodes": [{"args": [{"class_name": "__keras_tensor__", "config": {"shape": [null, 10, 10, 256], "dtype": "float32", "keras_history": ["zero_padding2d_64", 0, 0]}}], "kwargs": {}}]}, {"class_name": "BatchNormalization", "config": {"name": "stage3_unit4_bn3", "trainable": true, "dtype": {"module": "keras", "class_name": "DTypePolicy", "config": {"name": "float32"}, "registered_name": null}, "axis": -1, "momentum": 0.99, "epsilon": 0.001, "center": true, "scale": true, "beta_initializer": {"module": "keras.initializers", "class_name": "Zeros", "config": {}, "registered_name": null}, "gamma_initializer": {"module": "keras.initializers", "class_name": "Ones", "config": {}, "registered_name": null}, "moving_mean_initializer": {"module": "keras.initializers", "class_name": "Zeros", "config": {}, "registered_name": null}, "moving_variance_initializer": {"module": "keras.initializers", "class_name": "Ones", "config": {}, "registered_name": null}, "beta_regularizer": null, "gamma_regularizer": null, "beta_constraint": null, "gamma_constraint": null, "synchronized": false}, "name": "stage3_unit4_bn3", "inbound_nodes": [{"args": [{"class_name": "__keras_tensor__", "config": {"shape": [null, 8, 8, 256], "dtype": "float32", "keras_history": ["stage3_unit4_conv2", 0, 0]}}], "kwargs": {"mask": null}}]}, {"class_name": "Activation", "config": {"name": "stage3_unit4_relu3", "trainable": true, "dtype": {"module": "keras", "class_name": "DTypePolicy", "config": {"name": "float32"}, "registered_name": null}, "activation": "relu"}, "name": "stage3_unit4_relu3", "inbound_nodes": [{"args": [{"class_name": "__keras_tensor__", "config": {"shape": [null, 8, 8, 256], "dtype": "float32", "keras_history": ["stage3_unit4_bn3", 0, 0]}}], "kwargs": {}}]}, {"class_name": "Conv2D", "config": {"name": "stage3_unit4_conv3", "trainable": true, "dtype": {"module": "keras", "class_name": "DTypePolicy", "config": {"name": "float32"}, "registered_name": null}, "filters": 1024, "kernel_size": [1, 1], "strides": [1, 1], "padding": "valid", "data_format": "channels_last", "dilation_rate": [1, 1], "groups": 1, "activation": "linear", "use_bias": false, "kernel_initializer": {"module": "keras.initializers", "class_name": "GlorotUniform", "config": {"seed": null}, "registered_name": null}, "bias_initializer": {"module": "keras.initializers", "class_name": "Zeros", "config": {}, "registered_name": null}, "kernel_regularizer": null, "bias_regularizer": null, "activity_regularizer": null, "kernel_constraint": null, "bias_constraint": null}, "name": "stage3_unit4_conv3", "inbound_nodes": [{"args": [{"class_name": "__keras_tensor__", "config": {"shape": [null, 8, 8, 256], "dtype": "float32", "keras_history": ["stage3_unit4_relu3", 0, 0]}}], "kwargs": {}}]}, {"class_name": "Add", "config": {"name": "add_14", "trainable": true, "dtype": {"module": "keras", "class_name": "DTypePolicy", "config": {"name": "float32"}, "registered_name": null}}, "name": "add_14", "inbound_nodes": [{"args": [[{"class_name": "__keras_tensor__", "config": {"shape": [null, 8, 8, 1024], "dtype": "float32", "keras_history": ["stage3_unit4_conv3", 0, 0]}}, {"class_name": "__keras_tensor__", "config": {"shape": [null, 8, 8, 1024], "dtype": "float32", "keras_history": ["add_13", 0, 0]}}]], "kwargs": {}}]}, {"class_name": "BatchNormalization", "config": {"name": "stage3_unit5_bn1", "trainable": true, "dtype": {"module": "keras", "class_name": "DTypePolicy", "config": {"name": "float32"}, "registered_name": null}, "axis": -1, "momentum": 0.99, "epsilon": 0.001, "center": true, "scale": true, "beta_initializer": {"module": "keras.initializers", "class_name": "Zeros", "config": {}, "registered_name": null}, "gamma_initializer": {"module": "keras.initializers", "class_name": "Ones", "config": {}, "registered_name": null}, "moving_mean_initializer": {"module": "keras.initializers", "class_name": "Zeros", "config": {}, "registered_name": null}, "moving_variance_initializer": {"module": "keras.initializers", "class_name": "Ones", "config": {}, "registered_name": null}, "beta_regularizer": null, "gamma_regularizer": null, "beta_constraint": null, "gamma_constraint": null, "synchronized": false}, "name": "stage3_unit5_bn1", "inbound_nodes": [{"args": [{"class_name": "__keras_tensor__", "config": {"shape": [null, 8, 8, 1024], "dtype": "float32", "keras_history": ["add_14", 0, 0]}}], "kwargs": {"mask": null}}]}, {"class_name": "Activation", "config": {"name": "stage3_unit5_relu1", "trainable": true, "dtype": {"module": "keras", "class_name": "DTypePolicy", "config": {"name": "float32"}, "registered_name": null}, "activation": "relu"}, "name": "stage3_unit5_relu1", "inbound_nodes": [{"args": [{"class_name": "__keras_tensor__", "config": {"shape": [null, 8, 8, 1024], "dtype": "float32", "keras_history": ["stage3_unit5_bn1", 0, 0]}}], "kwargs": {}}]}, {"class_name": "Conv2D", "config": {"name": "stage3_unit5_conv1", "trainable": true, "dtype": {"module": "keras", "class_name": "DTypePolicy", "config": {"name": "float32"}, "registered_name": null}, "filters": 256, "kernel_size": [1, 1], "strides": [1, 1], "padding": "valid", "data_format": "channels_last", "dilation_rate": [1, 1], "groups": 1, "activation": "linear", "use_bias": false, "kernel_initializer": {"module": "keras.initializers", "class_name": "GlorotUniform", "config": {"seed": null}, "registered_name": null}, "bias_initializer": {"module": "keras.initializers", "class_name": "Zeros", "config": {}, "registered_name": null}, "kernel_regularizer": null, "bias_regularizer": null, "activity_regularizer": null, "kernel_constraint": null, "bias_constraint": null}, "name": "stage3_unit5_conv1", "inbound_nodes": [{"args": [{"class_name": "__keras_tensor__", "config": {"shape": [null, 8, 8, 1024], "dtype": "float32", "keras_history": ["stage3_unit5_relu1", 0, 0]}}], "kwargs": {}}]}, {"class_name": "BatchNormalization", "config": {"name": "stage3_unit5_bn2", "trainable": true, "dtype": {"module": "keras", "class_name": "DTypePolicy", "config": {"name": "float32"}, "registered_name": null}, "axis": -1, "momentum": 0.99, "epsilon": 0.001, "center": true, "scale": true, "beta_initializer": {"module": "keras.initializers", "class_name": "Zeros", "config": {}, "registered_name": null}, "gamma_initializer": {"module": "keras.initializers", "class_name": "Ones", "config": {}, "registered_name": null}, "moving_mean_initializer": {"module": "keras.initializers", "class_name": "Zeros", "config": {}, "registered_name": null}, "moving_variance_initializer": {"module": "keras.initializers", "class_name": "Ones", "config": {}, "registered_name": null}, "beta_regularizer": null, "gamma_regularizer": null, "beta_constraint": null, "gamma_constraint": null, "synchronized": false}, "name": "stage3_unit5_bn2", "inbound_nodes": [{"args": [{"class_name": "__keras_tensor__", "config": {"shape": [null, 8, 8, 256], "dtype": "float32", "keras_history": ["stage3_unit5_conv1", 0, 0]}}], "kwargs": {"mask": null}}]}, {"class_name": "Activation", "config": {"name": "stage3_unit5_relu2", "trainable": true, "dtype": {"module": "keras", "class_name": "DTypePolicy", "config": {"name": "float32"}, "registered_name": null}, "activation": "relu"}, "name": "stage3_unit5_relu2", "inbound_nodes": [{"args": [{"class_name": "__keras_tensor__", "config": {"shape": [null, 8, 8, 256], "dtype": "float32", "keras_history": ["stage3_unit5_bn2", 0, 0]}}], "kwargs": {}}]}, {"class_name": "ZeroPadding2D", "config": {"name": "zero_padding2d_65", "trainable": true, "dtype": {"module": "keras", "class_name": "DTypePolicy", "config": {"name": "float32"}, "registered_name": null}, "padding": [[1, 1], [1, 1]], "data_format": "channels_last"}, "name": "zero_padding2d_65", "inbound_nodes": [{"args": [{"class_name": "__keras_tensor__", "config": {"shape": [null, 8, 8, 256], "dtype": "float32", "keras_history": ["stage3_unit5_relu2", 0, 0]}}], "kwargs": {}}]}, {"class_name": "Conv2D", "config": {"name": "stage3_unit5_conv2", "trainable": true, "dtype": {"module": "keras", "class_name": "DTypePolicy", "config": {"name": "float32"}, "registered_name": null}, "filters": 256, "kernel_size": [3, 3], "strides": [1, 1], "padding": "valid", "data_format": "channels_last", "dilation_rate": [1, 1], "groups": 1, "activation": "linear", "use_bias": false, "kernel_initializer": {"module": "keras.initializers", "class_name": "GlorotUniform", "config": {"seed": null}, "registered_name": null}, "bias_initializer": {"module": "keras.initializers", "class_name": "Zeros", "config": {}, "registered_name": null}, "kernel_regularizer": null, "bias_regularizer": null, "activity_regularizer": null, "kernel_constraint": null, "bias_constraint": null}, "name": "stage3_unit5_conv2", "inbound_nodes": [{"args": [{"class_name": "__keras_tensor__", "config": {"shape": [null, 10, 10, 256], "dtype": "float32", "keras_history": ["zero_padding2d_65", 0, 0]}}], "kwargs": {}}]}, {"class_name": "BatchNormalization", "config": {"name": "stage3_unit5_bn3", "trainable": true, "dtype": {"module": "keras", "class_name": "DTypePolicy", "config": {"name": "float32"}, "registered_name": null}, "axis": -1, "momentum": 0.99, "epsilon": 0.001, "center": true, "scale": true, "beta_initializer": {"module": "keras.initializers", "class_name": "Zeros", "config": {}, "registered_name": null}, "gamma_initializer": {"module": "keras.initializers", "class_name": "Ones", "config": {}, "registered_name": null}, "moving_mean_initializer": {"module": "keras.initializers", "class_name": "Zeros", "config": {}, "registered_name": null}, "moving_variance_initializer": {"module": "keras.initializers", "class_name": "Ones", "config": {}, "registered_name": null}, "beta_regularizer": null, "gamma_regularizer": null, "beta_constraint": null, "gamma_constraint": null, "synchronized": false}, "name": "stage3_unit5_bn3", "inbound_nodes": [{"args": [{"class_name": "__keras_tensor__", "config": {"shape": [null, 8, 8, 256], "dtype": "float32", "keras_history": ["stage3_unit5_conv2", 0, 0]}}], "kwargs": {"mask": null}}]}, {"class_name": "Activation", "config": {"name": "stage3_unit5_relu3", "trainable": true, "dtype": {"module": "keras", "class_name": "DTypePolicy", "config": {"name": "float32"}, "registered_name": null}, "activation": "relu"}, "name": "stage3_unit5_relu3", "inbound_nodes": [{"args": [{"class_name": "__keras_tensor__", "config": {"shape": [null, 8, 8, 256], "dtype": "float32", "keras_history": ["stage3_unit5_bn3", 0, 0]}}], "kwargs": {}}]}, {"class_name": "Conv2D", "config": {"name": "stage3_unit5_conv3", "trainable": true, "dtype": {"module": "keras", "class_name": "DTypePolicy", "config": {"name": "float32"}, "registered_name": null}, "filters": 1024, "kernel_size": [1, 1], "strides": [1, 1], "padding": "valid", "data_format": "channels_last", "dilation_rate": [1, 1], "groups": 1, "activation": "linear", "use_bias": false, "kernel_initializer": {"module": "keras.initializers", "class_name": "GlorotUniform", "config": {"seed": null}, "registered_name": null}, "bias_initializer": {"module": "keras.initializers", "class_name": "Zeros", "config": {}, "registered_name": null}, "kernel_regularizer": null, "bias_regularizer": null, "activity_regularizer": null, "kernel_constraint": null, "bias_constraint": null}, "name": "stage3_unit5_conv3", "inbound_nodes": [{"args": [{"class_name": "__keras_tensor__", "config": {"shape": [null, 8, 8, 256], "dtype": "float32", "keras_history": ["stage3_unit5_relu3", 0, 0]}}], "kwargs": {}}]}, {"class_name": "Add", "config": {"name": "add_15", "trainable": true, "dtype": {"module": "keras", "class_name": "DTypePolicy", "config": {"name": "float32"}, "registered_name": null}}, "name": "add_15", "inbound_nodes": [{"args": [[{"class_name": "__keras_tensor__", "config": {"shape": [null, 8, 8, 1024], "dtype": "float32", "keras_history": ["stage3_unit5_conv3", 0, 0]}}, {"class_name": "__keras_tensor__", "config": {"shape": [null, 8, 8, 1024], "dtype": "float32", "keras_history": ["add_14", 0, 0]}}]], "kwargs": {}}]}, {"class_name": "BatchNormalization", "config": {"name": "stage3_unit6_bn1", "trainable": true, "dtype": {"module": "keras", "class_name": "DTypePolicy", "config": {"name": "float32"}, "registered_name": null}, "axis": -1, "momentum": 0.99, "epsilon": 0.001, "center": true, "scale": true, "beta_initializer": {"module": "keras.initializers", "class_name": "Zeros", "config": {}, "registered_name": null}, "gamma_initializer": {"module": "keras.initializers", "class_name": "Ones", "config": {}, "registered_name": null}, "moving_mean_initializer": {"module": "keras.initializers", "class_name": "Zeros", "config": {}, "registered_name": null}, "moving_variance_initializer": {"module": "keras.initializers", "class_name": "Ones", "config": {}, "registered_name": null}, "beta_regularizer": null, "gamma_regularizer": null, "beta_constraint": null, "gamma_constraint": null, "synchronized": false}, "name": "stage3_unit6_bn1", "inbound_nodes": [{"args": [{"class_name": "__keras_tensor__", "config": {"shape": [null, 8, 8, 1024], "dtype": "float32", "keras_history": ["add_15", 0, 0]}}], "kwargs": {"mask": null}}]}, {"class_name": "Activation", "config": {"name": "stage3_unit6_relu1", "trainable": true, "dtype": {"module": "keras", "class_name": "DTypePolicy", "config": {"name": "float32"}, "registered_name": null}, "activation": "relu"}, "name": "stage3_unit6_relu1", "inbound_nodes": [{"args": [{"class_name": "__keras_tensor__", "config": {"shape": [null, 8, 8, 1024], "dtype": "float32", "keras_history": ["stage3_unit6_bn1", 0, 0]}}], "kwargs": {}}]}, {"class_name": "Conv2D", "config": {"name": "stage3_unit6_conv1", "trainable": true, "dtype": {"module": "keras", "class_name": "DTypePolicy", "config": {"name": "float32"}, "registered_name": null}, "filters": 256, "kernel_size": [1, 1], "strides": [1…
oat32"}, {"name": "stage2_unit5_conv2/kernel", "shape": [3, 3, 128, 128], "dtype": "float32"}, {"name": "stage2_unit5_conv3/kernel", "shape": [1, 1, 128, 512], "dtype": "float32"}, {"name": "stage2_unit6_bn1/gamma", "shape": [512], "dtype": "float32"}, {"name": "stage2_unit6_bn1/beta", "shape": [512], "dtype": "float32"}, {"name": "stage2_unit6_bn1/moving_mean", "shape": [512], "dtype": "float32"}, {"name": "stage2_unit6_bn1/moving_variance", "shape": [512], "dtype": "float32"}, {"name": "stage2_unit6_bn2/gamma", "shape": [128], "dtype": "float32"}, {"name": "stage2_unit6_bn2/beta", "shape": [128], "dtype": "float32"}, {"name": "stage2_unit6_bn2/moving_mean", "shape": [128], "dtype": "float32"}, {"name": "stage2_unit6_bn2/moving_variance", "shape": [128], "dtype": "float32"}, {"name": "stage2_unit6_bn3/gamma", "shape": [128], "dtype": "float32"}, {"name": "stage2_unit6_bn3/beta", "shape": [128], "dtype": "float32"}, {"name": "stage2_unit6_bn3/moving_mean", "shape": [128], "dtype": "float32"}, {"name": "stage2_unit6_bn3/moving_variance", "shape": [128], "dtype": "float32"}, {"name": "stage2_unit6_conv1/kernel", "shape": [1, 1, 512, 128], "dtype": "float32"}, {"name": "stage2_unit6_conv2/kernel", "shape": [3, 3, 128, 128], "dtype": "float32"}, {"name": "stage2_unit6_conv3/kernel", "shape": [1, 1, 128, 512], "dtype": "float32"}, {"name": "stage2_unit7_bn1/gamma", "shape": [512], "dtype": "float32"}, {"name": "stage2_unit7_bn1/beta", "shape": [512], "dtype": "float32"}, {"name": "stage2_unit7_bn1/moving_mean", "shape": [512], "dtype": "float32"}, {"name": "stage2_unit7_bn1/moving_variance", "shape": [512], "dtype": "float32"}, {"name": "stage2_unit7_bn2/gamma", "shape": [128], "dtype": "float32"}, {"name": "stage2_unit7_bn2/beta", "shape": [128], "dtype": "float32"}, {"name": "stage2_unit7_bn2/moving_mean", "shape": [128], "dtype": "float32"}, {"name": "stage2_unit7_bn2/moving_variance", "shape": [128], "dtype": "float32"}, {"name": "stage2_unit7_bn3/gamma", "shape": [128], "dtype": "float32"}, {"name": "stage2_unit7_bn3/beta", "shape": [128], "dtype": "float32"}, {"name": "stage2_unit7_bn3/moving_mean", "shape": [128], "dtype": "float32"}, {"name": "stage2_unit7_bn3/moving_variance", "shape": [128], "dtype": "float32"}, {"name": "stage2_unit7_conv1/kernel", "shape": [1, 1, 512, 128], "dtype": "float32"}, {"name": "stage2_unit7_conv2/kernel", "shape": [3, 3, 128, 128], "dtype": "float32"}, {"name": "stage2_unit7_conv3/kernel", "shape": [1, 1, 128, 512], "dtype": "float32"}, {"name": "stage2_unit8_bn1/gamma", "shape": [512], "dtype": "float32"}, {"name": "stage2_unit8_bn1/beta", "shape": [512], "dtype": "float32"}, {"name": "stage2_unit8_bn1/moving_mean", "shape": [512], "dtype": "float32"}, {"name": "stage2_unit8_bn1/moving_variance", "shape": [512], "dtype": "float32"}, {"name": "stage2_unit8_bn2/gamma", "shape": [128], "dtype": "float32"}, {"name": "stage2_unit8_bn2/beta", "shape": [128], "dtype": "float32"}, {"name": "stage2_unit8_bn2/moving_mean", "shape": [128], "dtype": "float32"}, {"name": "stage2_unit8_bn2/moving_variance", "shape": [128], "dtype": "float32"}, {"name": "stage2_unit8_bn3/gamma", "shape": [128], "dtype": "float32"}, {"name": "stage2_unit8_bn3/beta", "shape": [128], "dtype": "float32"}, {"name": "stage2_unit8_bn3/moving_mean", "shape": [128], "dtype": "float32"}, {"name": "stage2_unit8_bn3/moving_variance", "shape": [128], "dtype": "float32"}, {"name": "stage2_unit8_conv1/kernel", "shape": [1, 1, 512, 128], "dtype": "float32"}, {"name": "stage2_unit8_conv2/kernel", "shape": [3, 3, 128, 128], "dtype": "float32"}, {"name": "stage2_unit8_conv3/kernel", "shape": [1, 1, 128, 512], "dtype": "float32"}, {"name": "stage3_unit10_bn1/gamma", "shape": [1024], "dtype": "float32"}, {"name": "stage3_unit10_bn1/beta", "shape": [1024], "dtype": "float32"}, {"name": "stage3_unit10_bn1/moving_mean", "shape": [1024], "dtype": "float32"}, {"name": "stage3_unit10_bn1/moving_variance", "shape": [1024], "dtype": "float32"}, {"name": "stage3_unit10_bn2/gamma", "shape": [256], "dtype": "float32"}, {"name": "stage3_unit10_bn2/beta", "shape": [256], "dtype": "float32"}, {"name": "stage3_unit10_bn2/moving_mean", "shape": [256], "dtype": "float32"}, {"name": "stage3_unit10_bn2/moving_variance", "shape": [256], "dtype": "float32"}, {"name": "stage3_unit10_bn3/gamma", "shape": [256], "dtype": "float32"}, {"name": "stage3_unit10_bn3/beta", "shape": [256], "dtype": "float32"}, {"name": "stage3_unit10_bn3/moving_mean", "shape": [256], "dtype": "float32"}, {"name": "stage3_unit10_bn3/moving_variance", "shape": [256], "dtype": "float32"}, {"name": "stage3_unit10_conv1/kernel", "shape": [1, 1, 1024, 256], "dtype": "float32"}, {"name": "stage3_unit10_conv2/kernel", "shape": [3, 3, 256, 256], "dtype": "float32"}, {"name": "stage3_unit10_conv3/kernel", "shape": [1, 1, 256, 1024], "dtype": "float32"}, {"name": "stage3_unit11_bn1/gamma", "shape": [1024], "dtype": "float32"}, {"name": "stage3_unit11_bn1/beta", "shape": [1024], "dtype": "float32"}, {"name": "stage3_unit11_bn1/moving_mean", "shape": [1024], "dtype": "float32"}, {"name": "stage3_unit11_bn1/moving_variance", "shape": [1024], "dtype": "float32"}, {"name": "stage3_unit11_bn2/gamma", "shape": [256], "dtype": "float32"}, {"name": "stage3_unit11_bn2/beta", "shape": [256], "dtype": "float32"}, {"name": "stage3_unit11_bn2/moving_mean", "shape": [256], "dtype": "float32"}, {"name": "stage3_unit11_bn2/moving_variance", "shape": [256], "dtype": "float32"}, {"name": "stage3_unit11_bn3/gamma", "shape": [256], "dtype": "float32"}, {"name": "stage3_unit11_bn3/beta", "shape": [256], "dtype": "float32"}, {"name": "stage3_unit11_bn3/moving_mean", "shape": [256], "dtype": "float32"}, {"name": "stage3_unit11_bn3/moving_variance", "shape": [256], "dtype": "float32"}, {"name": "stage3_unit11_conv1/kernel", "shape": [1, 1, 1024, 256], "dtype": "float32"}, {"name": "stage3_unit11_conv2/kernel", "shape": [3, 3, 256, 256], "dtype": "float32"}, {"name": "stage3_unit11_conv3/kernel", "shape": [1, 1, 256, 1024], "dtype": "float32"}, {"name": "stage3_unit12_bn1/gamma", "shape": [1024], "dtype": "float32"}, {"name": "stage3_unit12_bn1/beta", "shape": [1024], "dtype": "float32"}, {"name": "stage3_unit12_bn1/moving_mean", "shape": [1024], "dtype": "float32"}, {"name": "stage3_unit12_bn1/moving_variance", "shape": [1024], "dtype": "float32"}, {"name": "stage3_unit12_bn2/gamma", "shape": [256], "dtype": "float32"}, {"name": "stage3_unit12_bn2/beta", "shape": [256], "dtype": "float32"}, {"name": "stage3_unit12_bn2/moving_mean", "shape": [256], "dtype": "float32"}, {"name": "stage3_unit12_bn2/moving_variance", "shape": [256], "dtype": "float32"}, {"name": "stage3_unit12_bn3/gamma", "shape": [256], "dtype": "float32"}, {"name": "stage3_unit12_bn3/beta", "shape": [256], "dtype": "float32"}, {"name": "stage3_unit12_bn3/moving_mean", "shape": [256], "dtype": "float32"}, {"name": "stage3_unit12_bn3/moving_variance", "shape": [256], "dtype": "float32"}, {"name": "stage3_unit12_conv1/kernel", "shape": [1, 1, 1024, 256], "dtype": "float32"}, {"name": "stage3_unit12_conv2/kernel", "shape": [3, 3, 256, 256], "dtype": "float32"}, {"name": "stage3_unit12_conv3/kernel", "shape": [1, 1, 256, 1024], "dtype": "float32"}, {"name": "stage3_unit13_bn1/gamma", "shape": [1024], "dtype": "float32"}, {"name": "stage3_unit13_bn1/beta", "shape": [1024], "dtype": "float32"}, {"name": "stage3_unit13_bn1/moving_mean", "shape": [1024], "dtype": "float32"}, {"name": "stage3_unit13_bn1/moving_variance", "shape": [1024], "dtype": "float32"}, {"name": "stage3_unit13_bn2/gamma", "shape": [256], "dtype": "float32"}, {"name": "stage3_unit13_bn2/beta", "shape": [256], "dtype": "float32"}, {"name": "stage3_unit13_bn2/moving_mean", "shape": [256], "dtype": "float32"}, {"name": "stage3_unit13_bn2/moving_variance", "shape": [256], "dtype": "float32"}, {"name": "stage3_unit13_bn3/gamma", "shape": [256], "dtype": "float32"}, {"name": "stage3_unit13_bn3/beta", "shape": [256], "dtype": "float32"}, {"name": "stage3_unit13_bn3/moving_mean", "shape": [256], "dtype": "float32"}, {"name": "stage3_unit13_bn3/moving_variance", "shape": [256], "dtype": "float32"}, {"name": "stage3_unit13_conv1/kernel", "shape": [1, 1, 1024, 256], "dtype": "float32"}, {"name": "stage3_unit13_conv2/kernel", "shape": [3, 3, 256, 256], "dtype": "float32"}, {"name": "stage3_unit13_conv3/kernel", "shape": [1, 1, 256, 1024], "dtype": "float32"}, {"name": "stage3_unit14_bn1/gamma", "shape": [1024], "dtype": "float32"}, {"name": "stage3_unit14_bn1/beta", "shape": [1024], "dtype": "float32"}, {"name": "stage3_unit14_bn1/moving_mean", "shape": [1024], "dtype": "float32"}, {"name": "stage3_unit14_bn1/moving_variance", "shape": [1024], "dtype": "float32"}, {"name": "stage3_unit14_bn2/gamma", "shape": [256], "dtype": "float32"}, {"name": "stage3_unit14_bn2/beta", "shape": [256], "dtype": "float32"}, {"name": "stage3_unit14_bn2/moving_mean", "shape": [256], "dtype": "float32"}, {"name": "stage3_unit14_bn2/moving_variance", "shape": [256], "dtype": "float32"}, {"name": "stage3_unit14_bn3/gamma", "shape": [256], "dtype": "float32"}, {"name": "stage3_unit14_bn3/beta", "shape": [256], "dtype": "float32"}, {"name": "stage3_unit14_bn3/moving_mean", "shape": [256], "dtype": "float32"}, {"name": "stage3_unit14_bn3/moving_variance", "shape": [256], "dtype": "float32"}, {"name": "stage3_unit14_conv1/kernel", "shape": [1, 1, 1024, 256], "dtype": "float32"}, {"name": "stage3_unit14_conv2/kernel", "shape": [3, 3, 256, 256], "dtype": "float32"}, {"name": "stage3_unit14_conv3/kernel", "shape": [1, 1, 256, 1024], "dtype": "float32"}, {"name": "stage3_unit15_bn1/gamma", "shape": [1024], "dtype": "float32"}, {"name": "stage3_unit15_bn1/beta", "shape": [1024], "dtype": "float32"}, {"name": "stage3_unit15_bn1/moving_mean", "shape": [1024], "dtype": "float32"}, {"name": "stage3_unit15_bn1/moving_variance", "shape": [1024], "dtype": "float32"}, {"name": "stage3_unit15_bn2/gamma", "shape": [256], "dtype": "float32"}, {"name": "stage3_unit15_bn2/beta", "shape": [256], "dtype": "float32"}, {"name": "stage3_unit15_bn2/moving_mean", "shape": [256], "dtype": "float32"}, {"name": "stage3_unit15_bn2/moving_variance", "shape": [256], "dtype": "float32"}, {"name": "stage3_unit15_bn3/gamma", "shape": [256], "dtype": "float32"}, {"name": "stage3_unit15_bn3/beta", "shape": [256], "dtype": "float32"}, {"name": "stage3_unit15_bn3/moving_mean", "shape": [256], "dtype": "float32"}, {"name": "stage3_unit15_bn3/moving_variance", "shape": [256], "dtype": "float32"}, {"name": "stage3_unit15_conv1/kernel", "shape": [1, 1, 1024, 256], "dtype": "float32"}, {"name": "stage3_unit15_conv2/kernel", "shape": [3, 3, 256, 256], "dtype": "float32"}, {"name": "stage3_unit15_conv3/kernel", "shape": [1, 1, 256, 1024], "dtype": "float32"}, {"name": "stage3_unit16_bn1/gamma", "shape": [1024], "dtype": "float32"}, {"name": "stage3_unit16_bn1/beta", "shape": [1024], "dtype": "float32"}, {"name": "stage3_unit16_bn1/moving_mean", "shape": [1024], "dtype": "float32"}, {"name": "stage3_unit16_bn1/moving_variance", "shape": [1024], "dtype": "float32"}, {"name": "stage3_unit16_bn2/gamma", "shape": [256], "dtype": "float32"}, {"name": "stage3_unit16_bn2/beta", "shape": [256], "dtype": "float32"}, {"name": "stage3_unit16_bn2/moving_mean", "shape": [256], "dtype": "float32"}, {"name": "stage3_unit16_bn2/moving_variance", "shape": [256], "dtype": "float32"}, {"name": "stage3_unit16_bn3/gamma", "shape": [256], "dtype": "float32"}, {"name": "stage3_unit16_bn3/beta", "shape": [256], "dtype": "float32"}, {"name": "stage3_unit16_bn3/moving_mean", "shape": [256], "dtype": "float32"}, {"name": "stage3_unit16_bn3/moving_variance", "shape": [256], "dtype": "float32"}, {"name": "stage3_unit16_conv1/kernel", "shape": [1, 1, 1024, 256], "dtype": "float32"}, {"name": "stage3_unit16_conv2/kernel", "shape": [3, 3, 256, 256], "dtype": "float32"}, {"name": "stage3_unit16_conv3/kernel", "shape": [1, 1, 256, 1024], "dtype": "float32"}, {"name": "stage3_unit17_bn1/gamma", "shape": [1024], "dtype": "float32"}, {"name": "stage3_unit17_bn1/beta", "shape": [1024], "dtype": "float32"}, {"name": "stage3_unit17_bn1/moving_mean", "shape": [1024], "dtype": "float32"}, {"name": "stage3_unit17_bn1/moving_variance", "shape": [1024], "dtype": "float32"}, {"name": "stage3_unit17_bn2/gamma", "shape": [256], "dtype": "float32"}, {"name": "stage3_unit17_bn2/beta", "shape": [256], "dtype": "float32"}, {"name": "stage3_unit17_bn2/moving_mean", "shape": [256], "dtype": "float32"}, {"name": "stage3_unit17_bn2/moving_variance", "shape": [256], "dtype": "float32"}, {"name": "stage3_unit17_bn3/gamma", "shape": [256], "dtype": "float32"}, {"name": "stage3_unit17_bn3/beta", "shape": [256], "dtype": "float32"}, {"name": "stage3_unit17_bn3/moving_mean", "shape": [256], "dtype": "float32"}, {"name": "stage3_unit17_bn3/moving_variance", "shape": [256], "dtype": "float32"}, {"name": "stage3_unit17_conv1/kernel", "shape": [1, 1, 1024, 256], "dtype": "float32"}, {"name": "stage3_unit17_conv2/kernel", "shape": [3, 3, 256, 256], "dtype": "float32"}, {"name": "stage3_unit17_conv3/kernel", "shape": [1, 1, 256, 1024], "dtype": "float32"}, {"name": "stage3_unit18_bn1/gamma", "shape": [1024], "dtype": "float32"}, {"name": "stage3_unit18_bn1/beta", "shape": [1024], "dtype": "float32"}, {"name": "stage3_unit18_bn1/moving_mean", "shape": [1024], "dtype": "float32"}, {"name": "stage3_unit18_bn1/moving_variance", "shape": [1024], "dtype": "float32"}, {"name": "stage3_unit18_bn2/gamma", "shape": [256], "dtype": "float32"}, {"name": "stage3_unit18_bn2/beta", "shape": [256], "dtype": "float32"}, {"name": "stage3_unit18_bn2/moving_mean", "shape": [256], "dtype": "float32"}, {"name": "stage3_unit18_bn2/moving_variance", "shape": [256], "dtype": "float32"}, {"name": "stage3_unit18_bn3/gamma", "shape": [256], "dtype": "float32"}, {"name": "stage3_unit18_bn3/beta", "shape": [256], "dtype": "float32"}, {"name": "stage3_unit18_bn3/moving_mean", "shape": [256], "dtype": "float32"}, {"name": "stage3_unit18_bn3/moving_variance", "shape": [256], "dtype": "float32"}, {"name": "stage3_unit18_conv1/kernel", "shape": [1, 1, 1024, 256], "dtype": "float32"}, {"name": "stage3_unit18_conv2/kernel", "shape": [3, 3, 256, 256], "dtype": "float32"}, {"name": "stage3_unit18_conv3/kernel", "shape": [1, 1, 256, 1024], "dtype": "float32"}, {"name": "stage3_unit19_bn1/gamma", "shape": [1024], "dtype": "float32"}, {"name": "stage3_unit19_bn1/beta", "shape": [1024], "dtype": "float32"}, {"name": "stage3_unit19_bn1/moving_mean", "shape": [1024], "dtype": "float32"}, {"name": "stage3_unit19_bn1/moving_variance", "shape": [1024], "dtype": "float32"}, {"name": "stage3_unit19_bn2/gamma", "shape": [256], "dtype": "float32"}, {"name": "stage3_unit19_bn2/beta", "shape": [256], "dtype": "float32"}, {"name": "stage3_unit19_bn2/moving_mean", "shape": [256], "dtype": "float32"}, {"name": "stage3_unit19_bn2/moving_variance", "shape": [256], "dtype": "float32"}, {"name": "stage3_unit19_bn3/gamma", "shape": [256], "dtype": "float32"}, {"name": "stage3_unit19_bn3/beta", "shape": [256], "dtype": "float32"}, {"name": "stage3_unit19_bn3/moving_mean", "shape": [256], "dtype": "float32"}, {"name": "stage3_unit19_bn3/moving_variance", "shape": [256], "dtype": "float32"}, {"name": "stage3_unit19_conv1/kernel", "shape": [1, 1, 1024, 256], "dtype": "float32"}, {"name": "stage3_unit19_conv2/kernel", "shape": [3, 3, 256, 256], "dtype": "float32"}, {"name": "stage3_unit19_conv3/kernel", "shape": [1, 1, 256, 1024], "dtype": "float32"}, {"name": "stage3_unit1_bn1/gamma", "shape": [512], "dtype": "float32"}, {"name": "stage3_unit1_bn1/beta", "shape": [512], "dtype": "float32"}, {"name": "stage3_unit1_bn1/moving_mean", "shape": [512], "dtype": "float32"}, {"name": "stage3_unit1_bn1/moving_variance", "shape": [512], "dtype": "float32"}, {"name": "stage3_unit1_bn2/gamma", "shape": [256], "dtype": "float32"}, {"name": "stage3_unit1_bn2/beta", "shape": [256], "dtype": "float32"}, {"name": "stage3_unit1_bn2/moving_mean", "shape": [256], "dtype": "float32"}, {"name": "stage3_unit1_bn2/moving_variance", "shape": [256], "dtype": "float32"}, {"name": "stage3_unit1_bn3/gamma", "shape": [256], "dtype": "float32"}, {"name": "stage3_unit1_bn3/beta", "shape": [256], "dtype": "float32"}, {"name": "stage3_unit1_bn3/moving_mean", "shape": [256], "dtype": "float32"}, {"name": "stage3_unit1_bn3/moving_variance", "shape": [256], "dtype": "float32"}, {"name": "stage3_unit1_conv1/kernel", "shape": [1, 1, 512, 256], "dtype": "float32"}, {"name": "stage3_unit1_conv2/kernel", "shape": [3, 3, 256, 256], "dtype": "float32"}, {"name": "stage3_unit1_conv3/kernel", "shape": [1, 1, 256, 1024], "dtype": "float32"}, {"name": "stage3_unit1_sc/kernel", "shape": [1, 1, 512, 1024], "dtype": "float32"}, {"name": "stage3_unit20_bn1/gamma", "shape": [1024], "dtype": "float32"}, {"name": "stage3_unit20_bn1/beta", "shape": [1024], "dtype": "float32"}, {"name": "stage3_unit20_bn1/moving_mean", "shape": [1024], "dtype": "float32"}, {"name": "stage3_unit20_bn1/moving_variance", "shape": [1024], "dtype": "float32"}, {"name": "stage3_unit20_bn2/gamma", "shape": [256], "dtype": "float32"}, {"name": "stage3_unit20_bn2/beta", "shape": [256], "dtype": "float32"}, {"name": "stage3_unit20_bn2/moving_mean", "shape": [256], "dtype": "float32"}, {"name": "stage3_unit20_bn2/moving_variance", "shape": [256], "dtype": "float32"}, {"name": "stage3_unit20_bn3/gamma", "shape": [256], "dtype": "float32"}, {"name": "stage3_unit20_bn3/beta", "shape": [256], "dtype": "float32"}, {"name": "stage3_unit20_bn3/moving_mean", "shape": [256], "dtype": "float32"}, {"name": "stage3_unit20_bn3/moving_variance", "shape": [256], "dtype": "float32"}, {"name": "stage3_unit20_conv1/kernel", "shape": [1, 1, 1024, 256], "dtype": "float32"}, {"name": "stage3_unit20_conv2/kernel", "shape": [3, 3, 256, 256], "dtype": "float32"}, {"name": "stage3_unit20_conv3/kernel", "shape": [1, 1, 256, 1024], "dtype": "float32"}, {"name": "stage3_unit21_bn1/gamma", "shape": [1024], "dtype": "float32"}, {"name": "stage3_unit21_bn1/beta", "shape": [1024], "dtype": "float32"}, {"name": "stage3_unit21_bn1/moving_mean", "shape": [1024], "dtype": "float32"}, {"name": "stage3_unit21_bn1/moving_variance", "shape": [1024], "dtype": "float32"}, {"name": "stage3_unit21_bn2/gamma", "shape": [256], "dtype": "float32"}, {"name": "stage3_unit21_bn2/beta", "shape": [256], "dtype": "float32"}, {"name": "stage3_unit21_bn2/moving_mean", "shape": [256], "dtype": "float32"}, {"name": "stage3_unit21_bn2/moving_variance", "shape": [256], "dtype": "float32"}, {"name": "stage3_unit21_bn3/gamma", "shape": [256], "dtype": "float32"}, {"name": "stage3_unit21_bn3/beta", "shape": [256], "dtype": "float32"}, {"name": "stage3_unit21_bn3/moving_mean", "shape": [256], "dtype": "float32"}, {"name": "stage3_unit21_bn3/moving_variance", "shape": [256], "dtype": "float32"}, {"name": "stage3_unit21_conv1/kernel", "shape": [1, 1, 1024, 256], "dtype": "float32"}, {"name": "stage3_unit21_conv2/kernel", "shape": [3, 3, 256, 256], "dtype": "float32"}, {"name": "stage3_unit21_conv3/kernel", "shape": [1, 1, 256, 1024], "dtype": "float32"}, {"name": "stage3_unit22_bn1/gamma", "shape": [1024], "dtype": "float32"}, {"name": "stage3_unit22_bn1/beta", "shape": [1024], "dtype": "float32"}, {"name": "stage3_unit22_bn1/moving_mean", "shape": [1024], "dtype": "float32"}, {"name": "stage3_unit22_bn1/moving_variance", "shape": [1024], "dtype": "float32"}, {"name": "stage3_unit22_bn2/gamma", "shape": [256], "dtype": "float32"}, {"name": "stage3_unit22_bn2/beta", "shape": [256], "dtype": "float32"}, {"name": "stage3_unit22_bn2/moving_mean", "shape": [256], "dtype": "float32"}, {"name": "stage3_unit22_bn2/moving_variance", "shape": [256], "dtype": "float32"}, {"name": "stage3_unit22_bn3/gamma", "shape": [256], "dtype": "float32"}, {"name": "stage3_unit22_bn3/beta", "shape": [256], "dtype": "float32"}, {"name": "stage3_unit22_bn3/moving_mean", "shape": [256], "dtype": "float32"}, {"name": "stage3_unit22_bn3/moving_variance", "shape": [256], "dtype": "float32"}, {"name": "stage3_unit22_conv1/kernel", "shape": [1, 1, 1024, 256], "dtype": "float32"}, {"name": "stage3_unit22_conv2/kernel", "shape": [3, 3, 256, 256], "dtype": "float32"}, {"name": "stage3_unit22_conv3/kernel", "shape": [1, 1, 256, 1024], "dtype": "float32"}, {"name": "stage3_unit23_bn1/gamma", "shape": [1024], "dtype": "float32"}, {"name": "stage3_unit23_bn1/beta", "shape": [1024], "dtype": "float32"}, {"name": "stage3_unit23_bn1/moving_mean", "shape": [1024], "dtype": "float32"}, {"name": "stage3_unit23_bn1/moving_variance", "shape": [1024], "dtype": "float32"}, {"name": "stage3_unit23_bn2/gamma", "shape": [256], "dtype": "float32"}, {"name": "stage3_unit23_bn2/beta", "shape": [256], "dtype": "float32"}, {"name": "stage3_unit23_bn2/moving_mean", "shape": [256], "dtype": "float32"}, {"name": "stage3_unit23_bn2/moving_variance", "shape": [256], "dtype": "float32"}, {"name": "stage3_unit23_bn3/gamma", "shape": [256], "dtype": "float32"}, {"name": "stage3_unit23_bn3/beta", "shape": [256], "dtype": "float32"}, {"name": "stage3_unit23_bn3/moving_mean", "shape": [256], "dtype": "float32"}, {"name": "stage3_unit23_bn3/moving_variance", "shape": [256], "dtype": "float32"}, {"name": "stage3_unit23_conv1/kernel", "shape": [1, 1, 1024, 256], "dtype": "float32"}, {"name": "stage3_unit23_conv2/kernel", "shape": [3, 3, 256, 256], "dtype": "float32"}, {"name": "stage3_unit23_conv3/kernel", "shape": [1, 1, 256, 1024], "dtype": "float32"}, {"name": "stage3_unit24_bn1/gamma", "shape": [1024], "dtype": "float32"}, {"name": "stage3_unit24_bn1/beta", "shape": [1024], "dtype": "float32"}, {"name": "stage3_unit24_bn1/moving_mean", "shape": [1024], "dtype": "float32"}, {"name": "stage3_unit24_bn1/moving_variance", "shape": [1024], "dtype": "float32"}, {"name": "stage3_unit24_bn2/gamma", "shape": [256], "dtype": "float32"}, {"name": "stage3_unit24_bn2/beta", "shape": [256], "dtype": "float32"}, {"name": "stage3_unit24_bn2/moving_mean", "shape": [256], "dtype": "float32"}, {"name": "stage3_unit24_bn2/moving_variance", "shape": [256], "dtype": "float32"}, {"name": "stage3_unit24_bn3/gamma", "shape": [256], "dtype": "float32"}, {"name": "stage3_unit24_bn3/beta", "shape": [256], "dtype": "float32"}, {"name": "stage3_unit24_bn3/moving_mean", "shape": [256], "dtype": "float32"}, {"name": "stage3_unit24_bn3/moving_variance", "shape": [256], "dtype": "float32"}, {"name": "stage3_unit24_conv1/kernel", "shape": [1, 1, 1024, 256], "dtype": "float32"}, {"name": "stage3_unit24_conv2/kernel", "shape": [3, 3, 256, 256], "dtype": "float32"}, {"name": "stage3_unit24_conv3/kernel", "shape": [1, 1, 256, 1024], "dtype": "float32"}, {"name": "stage3_unit25_bn1/gamma", "shape": [1024], "dtype": "float32"}, {"name": "stage3_unit25_bn1/beta", "shape": [1024], "dtype": "float32"}, {"name": "stage3_unit25_bn1/moving_mean", "shape": [1024], "dtype": "float32"}, {"name": "stage3_unit25_bn1/moving_variance", "shape": [1024], "dtype": "float32"}, {"name": "stage3_unit25_bn2/gamma", "shape": [256], "dtype": "float32"}, {"name": "stage3_unit25_bn2/beta", "shape": [256], "dtype": "float32"}, {"name": "stage3_unit25_bn2/moving_mean", "shape": [256], "dtype": "float32"}, {"name": "stage3_unit25_bn2/moving_variance", "shape": [256], "dtype": "float32"}, {"name": "stage3_unit25_bn3/gamma", "shape": [256], "dtype": "float32"}, {"name": "stage3_unit25_bn3/beta", "shape": [256], "dtype": "float32"}, {"name": "stage3_unit25_bn3/moving_mean", "shape": [256], "dtype": "float32"}, {"name": "stage3_unit25_bn3/moving_variance", "shape": [256], "dtype": "float32"}, {"name": "stage3_unit25_conv1/kernel", "shape": [1, 1, 1024, 256], "dtype": "float32"}, {"name": "stage3_unit25_conv2/kernel", "shape": [3, 3, 256, 256], "dtype": "float32"}, {"name": "stage3_unit25_conv3/kernel", "shape": [1, 1, 256, 1024], "dtype": "float32"}, {"name": "stage3_unit26_bn1/gamma", "shape": [1024], "dtype": "float32"}, {"name": "stage3_unit26_bn1/beta", "shape": [1024], "dtype": "float32"}, {"name": "stage3_unit26_bn1/moving_mean", "shape": [1024], "dtype": "float32"}, {"name": "stage3_unit26_bn1/moving_variance", "shape": [1024], "dtype": "float32"}, {"name": "stage3_unit26_bn2/gamma", "shape": [256], "dtype": "float32"}, {"name": "stage3_unit26_bn2/beta", "shape": [256], "dtype": "float32"}, {"name": "stage3_unit26_bn2/moving_mean", "shape": [256], "dtype": "float32"}, {"name": "stage3_unit26_bn2/moving_variance", "shape": [256], "dtype": "float32"}, {"name": "stage3_unit26_bn3/gamma", "shape": [256], "dtype": "float32"}, {"name": "stage3_unit26_bn3/beta", "shape": [256], "dtype": "float32"}, {"name": "stage3_unit26_bn3/moving_mean", "shape": [256], "dtype": "float32"}, {"name": "stage3_unit26_bn3/moving_variance", "shape": [256], "dtype": "float32"}, {"name": "stage3_unit26_conv1/kernel", "shape": [1, 1, 1024, 256], "dtype": "float32"}, {"name": "stage3_unit26_conv2/kernel", "shape": [3, 3, 256, 256], "dtype": "float32"}, {"name": "stage3_unit26_conv3/kernel", "shape": [1, 1, 256, 1024], "dtype": "float32"}, {"name": "stage3_unit27_bn1/gamma", "shape": [1024], "dtype": "float32"}, {"name": "stage3_unit27_bn1/beta", "shape": [1024], "dtype": "float32"}, {"name": "stage3_unit27_bn1/moving_mean", "shape": [1024], "dtype": "float32"}, {"name": "stage3_unit27_bn1/moving_variance", "shape": [1024], "dtype": "float32"}, {"name": "stage3_unit27_bn2/gamma", "shape": [256], "dtype": "float32"}, {"name": "stage3_unit27_bn2/beta", "shape": [256], "dtype": "float32"}, {"name": "stage3_unit27_bn2/moving_mean", "shape": [256], "dtype": "float32"}, {"name": "stage3_unit27_bn2/moving_variance", "shape": [256], "dtype": "float32"}, {"name": "stage3_unit27_bn3/gamma", "shape": [256], "dtype": "float32"}, {"name": "stage3_unit27_bn3/beta", "shape": [256], "dtype": "float32"}, {"name": "stage3_unit27_bn3/moving_mean", "shape": [256], "dtype": "float32"}, {"name": "stage3_unit27_bn3/moving_variance", "shape": [256], "dtype": "float32"}, {"name": "stage3_unit27_conv1/kernel", "shape": [1, 1, 1024, 256], "dtype": "float32"}, {"name": "stage3_unit27_conv2/kernel", "shape": [3, 3, 256, 256], "dtype": "float32"}, {"name": "stage3_unit27_conv3/kernel", "shape": [1, 1, 256, 1024], "dtype": "float32"}, {"name": "stage3_unit28_bn1/gamma", "shape": [1024], "dtype": "float32"}, {"name": "stage3_unit28_bn1/beta", "shape": [1024], "dtype": "float32"}, {"name": "stage3_unit28_bn1/moving_mean", "shape": [1024], "dtype": "float32"}, {"name": "stage3_unit28_bn1/moving_variance", "shape": [1024], "dtype": "float32"}, {"name": "stage3_unit28_bn2/gamma", "shape": [256], "dtype": "float32"}, {"name": "stage3_unit28_bn2/beta", "shape": [256], "dtype": "float32"}, {"name": "stage3_unit28_bn2/moving_mean", "shape": [256], "dtype": "float32"}, {"name": "stage3_unit28_bn2/moving_variance", "shape": [256], "dtype": "float32"}, {"name": "stage3_unit28_bn3/gamma", "shape": [256], "dtype": "float32"}, {"name": "stage3_unit28_bn3/beta", "shape": [256], "dtype": "float32"}, {"name": "stage3_unit28_bn3/moving_mean", "shape": [256], "dtype": "float32"}, {"name": "stage3_unit28_bn3/moving_variance", "shape": [256], "dtype": "float32"}, {"name": "stage3_unit28_conv1/kernel", "shape": [1, 1, 1024, 256], "dtype": "float32"}, {"name": "stage3_unit28_conv2/kernel", "shape": [3, 3, 256, 256], "dtype": "float32"}, {"name": "stage3_unit28_conv3/kernel", "shape": [1, 1, 256, 1024], "dtype": "float32"}, {"name": "stage3_unit29_bn1/gamma", "shape": [1024], "dtype": "float32"}, {"name": "stage3_unit29_bn1/beta", "shape": [1024], "dtype": "float32"}, {"name": "stage3_unit29_bn1/moving_mean", "shape": [1024], "dtype": "float32"}, {"name": "stage3_unit29_bn1/moving_variance", "shape": [1024], "dtype": "float32"}, {"name": "stage3_unit29_bn2/gamma", "shape": [256], "dtype": "float32"}, {"name": "stage3_unit29_bn2/beta", "shape": [256], "dtype": "float32"}, {"name": "stage3_unit29_bn2/moving_mean", "shape": [256], "dtype": "float32"}, {"name": "stage3_unit29_bn2/moving_variance", "shape": [256], "dtype": "float32"}, {"name": "stage3_unit29_bn3/gamma", "shape": [256], "dtype": "float32"}, {"name": "stage3_unit29_bn3/beta", "shape": [256], "dtype": "float32"}, {"name": "stage3_unit29_bn3/moving_mean", "shape": [256], "dtype": "float32"}, {"name": "stage3_unit29_bn3/moving_variance", "shape": [256], "dtype": "float32"}, {"name": "stage3_unit29_conv1/kernel", "shape": [1, 1, 1024, 256], "dtype": "float32"}, {"name": "stage3_unit29_conv2/kernel", "shape": [3, 3, 256, 256], "dtype": "float32"}, {"name": "stage3_unit29_conv3/kernel", "shape": [1, 1, 256, 1024], "dtype": "float32"}, {"name": "stage3_unit2_bn1/gamma", "shape": [1024], "dtype": "float32"}, {"name": "stage3_unit2_bn1/beta", "shape": [1024], "dtype": "float32"}, {"name": "stage3_unit2_bn1/moving_mean", "shape": [1024], "dtype": "float32"}, {"name": "stage3_unit2_bn1/moving_variance", "shape": [1024], "dtype": "float32"}, {"name": "stage3_unit2_bn2/gamma", "shape": [256], "dtype": "float32"}, {"name": "stage3_unit2_bn2/beta", "shape": [256], "dtype": "float32"}, {"name": "stage3_unit2_bn2/moving_mean", "shape": [256], "dtype": "float32"}, {"name": "stage3_unit2_bn2/moving_variance", "shape": [256], "dtype": "float32"}, {"name": "stage3_unit2_bn3/gamma", "shape": [256], "dtype": "float32"}, {"name": "stage3_unit2_bn3/beta", "shape": [256], "dtype": "float32"}, {"name": "stage3_unit2_bn3/moving_mean", "shape": [256], "dtype": "float32"}, {"name": "stage3_unit2_bn3/moving_variance", "shape": [256], "dtype": "float32"}, {"name": "stage3_unit2_conv1/kernel", "shape": [1, 1, 1024, 256], "dtype": "float32"}, {"name": "stage3_unit2_conv2/kernel", "shape": [3, 3, 256, 256], "dtype": "float32"}, {"name": "stage3_unit2_conv3/kernel", "shape": [1, 1, 256, 1024], "dtype": "float32"}, {"name": "stage3_unit30_bn1/gamma", "shape": [1024], "dtype": "float32"}, {"name": "stage3_unit30_bn1/beta", "shape": [1024], "dtype": "float32"}, {"name": "stage3_unit30_bn1/moving_mean", "shape": [1024], "dtype": "float32"}, {"name": "stage3_unit30_bn1/moving_variance", "shape": [1024], "dtype": "float32"}, {"name": "stage3_unit30_bn2/gamma", "shape": [256], "dtype": "float32"}, {"name": "stage3_unit30_bn2/beta", "shape": [256], "dtype": "float32"}, {"name": "stage3_unit30_bn2/moving_mean", "shape": [256], "dtype": "float32"}, {"name": "stage3_unit30_bn2/moving_variance", "shape": [256], "dtype": "float32"}, {"name": "stage3_unit30_bn3/gamma", "shape": [256], "dtype": "float32"}, {"name": "stage3_unit30_bn3/beta", "shape": [256], "dtype": "float32"}, {"name": "stage3_unit30_bn3/moving_mean", "shape": [256], "dtype": "float32"}, {"name": "stage3_unit30_bn3/moving_variance", "shape": [256], "dtype": "float32"}, {"name": "stage3_unit30_conv1/kernel", "shape": [1, 1, 1024, 256], "dtype": "float32"}, {"name": "stage3_unit30_conv2/kernel", "shape": [3, 3, 256, 256], "dtype": "float32"}, {"name": "stage3_unit30_conv3/kernel", "shape": [1, 1, 256, 1024], "dtype": "float32"}, {"name": "stage3_unit31_bn1/gamma", "shape": [1024], "dtype": "float32"}, {"name": "stage3_unit31_bn1/beta", "shape": [1024], "dtype": "float32"}, {"name": "stage3_unit31_bn1/moving_mean", "shape": [1024], "dtype": "float32"}, {"name": "stage3_unit31_bn1/moving_variance", "shape": [1024], "dtype": "float32"}, {"name": "stage3_unit31_bn2/gamma", "shape": [256], "dtype": "float32"}, {"name": "stage3_unit31_bn2/beta", "shape": [256], "dtype": "float32"}, {"name": "stage3_unit31_bn2/moving_mean", "shape": [256], "dtype": "float32"}, {"name": "stage3_unit31_bn2/moving_variance", "shape": [256], "dtype": "float32"}, {"name": "stage3_unit31_bn3/gamma", "shape": [256], "dtype": "float32"}, {"name": "stage3_unit31_bn3/beta", "shape": [256], "dtype": "float32"}, {"name": "stage3_unit31_bn3/moving_mean", "shape": [256], "dtype": "float32"}, {"name": "stage3_unit31_bn3/moving_variance", "shape": [256], "dtype": "float32"}, {"name": "stage3_unit31_conv1/kernel", "shape": [1, 1, 1024, 256], "dtype": "float32"}, {"name": "stage3_unit31_conv2/kernel", "shape": [3, 3, 256, 256], "dtype": "float32"}, {"name": "stage3_unit31_conv3/kernel", "shape": [1, 1, 256, 1024], "dtype": "float32"}, {"name": "stage3_unit32_bn1/gamma", "shape": [1024], "dtype": "float32"}, {"name": "stage3_unit32_bn1/beta", "shape": [1024], "dtype": "float32"}, {"name": "stage3_unit32_bn1/moving_mean", "shape": [1024], "dtype": "float32"}, {"name": "stage3_unit32_bn1/moving_variance", "shape": [1024], "dtype": "float32"}, {"name": "stage3_unit32_bn2/gamma", "shape": [256], "dtype": "float32"}, {"name": "stage3_unit32_bn2/beta", "shape": [256], "dtype": "float32"}, {"name": "stage3_unit32_bn2/moving_mean", "shape": [256], "dtype": "float32"}, {"name": "stage3_unit32_bn2/moving_variance", "shape": [256], "dtype": "float32"}, {"name": "stage3_unit32_bn3/gamma", "shape": [256], "dtype": "float32"}, {"name": "stage3_unit32_bn3/beta", "shape": [256], "dtype": "float32"}, {"name": "stage3_unit32_bn3/moving_mean", "shape": [256], "dtype": "float32"}, {"name": "stage3_unit32_bn3/moving_variance", "shape": [256], "dtype": "float32"}, {"name": "stage3_unit32_conv1/kernel", "shape": [1, 1, 1024, 256], "dtype": "float32"}, {"name": "stage3_unit32_conv2/kernel", "shape": [3, 3, 256, 256], "dtype": "float32"}, {"name": "stage3_unit32_conv3/kernel", "shape": [1, 1, 256, 1024], "dtype": "float32"}, {"name": "stage3_unit33_bn1/gamma", "shape": [1024], "dtype": "float32"}, {"name": "stage3_unit33_bn1/beta", "shape": [1024], "dtype": "float32"}, {"name": "stage3_unit33_bn1/moving_mean", "shape": [1024], "dtype": "float32"}, {"name": "stage3_unit33_bn1/moving_variance", "shape": [1024], "dtype": "float32"}, {"name": "stage3_unit33_bn2/gamma", "shape": [256], "dtype": "float32"}, {"name": "stage3_unit33_bn2/beta", "shape": [256], "dtype": "float32"}, {"name": "stage3_unit33_bn2/moving_mean", "shape": [256], "dtype": "float32"}, {"name": "stage3_unit33_bn2/moving_variance", "shape": [256], "dtype": "float32"}, {"name": "stage3_unit33_bn3/gamma", "shape": [256], "dtype": "float32"}, {"name": "stage3_unit33_bn3/beta", "shape": [256], "dtype": "float32"}, {"name": "stage3_unit33_bn3/moving_mean", "shape": [256], "dtype": "float32"}, {"name": "stage3_unit33_bn3/moving_variance", "shape": [256], "dtype": "float32"}, {"name": "stage3_unit33_conv1/kernel", "shape": [1, 1, 1024, 256], "dtype": "float32"}, {"name": "stage3_unit33_conv2/kernel", "shape": [3, 3, 256, 256], "dtype": "float32"}, {"name": "stage3_unit33_conv3/kernel", "shape": [1, 1, 256, 1024], "dtype": "float32"}, {"name": "stage3_unit34_bn1/gamma", "shape": [1024], "dtype": "float32"}, {"name": "stage3_unit34_bn1/beta", "shape": [1024], "dtype": "float32"}, {"name": "stage3_unit34_bn1/moving_mean", "shape": [1024], "dtype": "float32"}, {"name": "stage3_unit34_bn1/moving_variance", "shape": [1024], "dtype": "float32"}, {"name": "stage3_unit34_bn2/gamma", "shape": [256], "dtype": "float32"}, {"name": "stage3_unit34_bn2/beta", "shape": [256], "dtype": "float32"}, {"name": "stage3_unit34_bn2/moving_mean", "shape": [256], "dtype": "float32"}, {"name": "stage3_unit34_bn2/moving_variance", "shape": [256], "dtype": "float32"}, {"name": "stage3_unit34_bn3/gamma", "shape": [256], "dtype": "float32"}, {"name": "stage3_unit34_bn3/beta", "shape": [256], "dtype": "float32"}, {"name": "stage3_unit34_bn3/moving_mean", "shape": [256], "dtype": "float32"}, {"name": "stage3_unit34_bn3/moving_variance", "shape": [256], "dtype": "float32"}, {"name": "stage3_unit34_conv1/kernel", "shape": [1, 1, 1024, 256], "dtype": "float32"}, {"name": "stage3_unit34_conv2/kernel", "shape": [3, 3, 256, 256], "dtype": "float32"}, {"name": "stage3_unit34_conv3/kernel", "shape": [1, 1, 256, 1024], "dtype": "float32"}, {"name": "stage3_unit35_bn1/gamma", "shape": [1024], "dtype": "float32"}, {"name": "stage3_unit35_bn1/beta", "shape": [1024], "dtype": "float32"}, {"name": "stage3_unit35_bn1/moving_mean", "shape": [1024], "dtype": "float32"}, {"name": "stage3_unit35_bn1/moving_variance", "shape": [1024], "dtype": "float32"}, {"name": "stage3_unit35_bn2/gamma", "shape": [256], "dtype": "float32"}, {"name": "stage3_unit35_bn2/beta", "shape": [256], "dtype": "float32"}, {"name": "stage3_unit35_bn2/moving_mean", "shape": [256], "dtype": "float32"}, {"name": "stage3_unit35_bn2/moving_variance", "shape": [256], "dtype": "float32"}, {"name": "stage3_unit35_bn3/gamma", "shape": [256], "dtype": "float32"}, {"name": "stage3_unit35_bn3/beta", "shape": [256], "dtype": "float32"}, {"name": "stage3_unit35_bn3/moving_mean", "shape": [256], "dtype": "float32"}, {"name": "stage3_unit35_bn3/moving_variance", "shape": [256], "dtype": "float32"}, {"name": "stage3_unit35_conv1/kernel", "shape": [1, 1, 1024, 256], "dtype": "float32"}, {"name": "stage3_unit35_conv2/kernel", "shape": [3, 3, 256, 256], "dtype": "float32"}, {"name": "stage3_unit35_conv3/kernel", "shape": [1, 1, 256, 1024], "dtype": "float32"}, {"name": "stage3_unit36_bn1/gamma", "shape": [1024], "dtype": "float32"}, {"name": "stage3_unit36_bn1/beta", "shape": [1024], "dtype": "float32"}, {"name": "stage3_unit36_bn1/moving_mean", "shape": [1024], "dtype": "float32"}, {"name": "stage3_unit36_bn1/moving_variance", "shape": [1024], "dtype": "float32"}, {"name": "stage3_unit36_bn2/gamma", "shape": [256], "dtype": "float32"}, {"name": "stage3_unit36_bn2/beta", "shape": [256], "dtype": "float32"}, {"name": "stage3_unit36_bn2/moving_mean", "shape": [256], "dtype": "float32"}, {"name": "stage3_unit36_bn2/moving_variance", "shape": [256], "dtype": "float32"}, {"name": "stage3_unit36_bn3/gamma", "shape": [256], "dtype": "float32"}, {"name": "stage3_unit36_bn3/beta", "shape": [256], "dtype": "float32"}, {"name": "stage3_unit36_bn3/moving_mean", "shape": [256], "dtype": "float32"}, {"name": "stage3_unit36_bn3/moving_variance", "shape": [256], "dtype": "float32"}, {"name": "stage3_unit36_conv1/kernel", "shape": [1, 1, 1024, 256], "dtype": "float32"}, {"name": "stage3_unit36_conv2/kernel", "shape": [3, 3, 256, 256], "dtype": "float32"}, {"name": "stage3_unit36_conv3/kernel", "shape": [1, 1, 256, 1024], "dtype": "float32"}, {"name": "stage3_unit3_bn1/gamma", "shape": [1024], "dtype": "float32"}, {"name": "stage3_unit3_bn1/beta", "shape": [1024], "dtype": "float32"}, {"name": "stage3_unit3_bn1/moving_mean", "shape": [1024], "dtype": "float32"}, {"name": "stage3_unit3_bn1/moving_variance", "shape": [1024], "dtype": "float32"}, {"name": "stage3_unit3_bn2/gamma", "shape": [256], "dtype": "float32"}, {"name": "stage3_unit3_bn2/beta", "shape": [256], "dtype": "float32"}, {"name": "stage3_unit3_bn2/moving_mean", "shape": [256], "dtype": "float32"}, {"name": "stage3_unit3_bn2/moving_variance", "shape": [256], "dtype": "float32"}, {"name": "stage3_unit3_bn3/gamma", "shape": [256], "dtype": "float32"}, {"name": "stage3_unit3_bn3/beta", "shape": [256], "dtype": "float32"}, {"name": "stage3_unit3_bn3/moving_mean", "shape": [256], "dtype": "float32"}, {"name": "stage3_unit3_bn3/moving_variance", "shape": [256], "dtype": "float32"}, {"name": "stage3_unit3_conv1/kernel", "shape": [1, 1, 1024, 256], "dtype": "float32"}, {"name": "stage3_unit3_conv2/kernel", "shape": [3, 3, 256, 256], "dtype": "float32"}, {"name": "stage3_unit3_conv3/kernel", "shape": [1, 1, 256, 1024], "dtype": "float32"}, {"name": "stage3_unit4_bn1/gamma", "shape": [1024], "dtype": "float32"}, {"name": "stage3_unit4_bn1/beta", "shape": [1024], "dtype": "float32"}, {"name": "stage3_unit4_bn1/moving_mean", "shape": [1024], "dtype": "float32"}, {"name": "stage3_unit4_bn1/moving_variance", "shape": [1024], "dtype": "float32"}, {"name": "stage3_unit4_bn2/gamma", "shape": [256], "dtype": "float32"}, {"name": "stage3_unit4_bn2/beta", "shape": [256], "dtype": "float32"}, {"name": "stage3_unit4_bn2/moving_mean", "shape": [256], "dtype": "float32"}, {"name": "stage3_unit4_bn2/moving_variance", "shape": [256], "dtype": "float32"}, {"name": "stage3_unit4_bn3/gamma", "shape": [256], "dtype": "float32"}, {"name": "stage3_unit4_bn3/beta", "shape": [256], "dtype": "float32"}, {"name": "stage3_unit4_bn3/moving_mean", "shape": [256], "dtype": "float32"}, {"name": "stage3_unit4_bn3/moving_variance", "shape": [256], "dtype": "float32"}, {"name": "stage3_unit4_conv1/kernel", "shape": [1, 1, 1024, 256], "dtype": "float32"}, {"name": "stage3_unit4_conv2/kernel", "shape": [3, 3, 256, 256], "dtype": "float32"}, {"name": "stage3_unit4_conv3/kernel", "shape": [1, 1, 256, 1024], "dtype": "float32"}, {"name": "stage3_unit5_bn1/gamma", "shape": [1024], "dtype": "float32"}, {"name": "stage3_unit5_bn1/beta", "shape": [1024], "dtype": "float32"}, {"name": "stage3_unit5_bn1/moving_mean", "shape": [1024], "dtype": "float32"}, {"name": "stage3_unit5_bn1/moving_variance", "shape": [1024], "dtype": "float32"}, {"name": "stage3_unit5_bn2/gamma", "shape": [256], "dtype": "float32"}, {"name": "stage3_unit5_bn2/beta", "shape": [256], "dtype": "float32"}, {"name": "stage3_unit5_bn2/moving_mean", "shape": [256], "dtype": "float32"}, {"name": "stage3_unit5_bn2/moving_variance", "shape": [256], "dtype": "float32"}, {"name": "stage3_unit5_bn3/gamma", "shape": [256], "dtype": "float32"}, {"name": "stage3_unit5_bn3/beta", "shape": [256], "dtype": "float32"}, {"name": "stage3_unit5_bn3/moving_mean", "shape": [256], "dtype": "float32"}, {"name": "stage3_unit5_bn3/moving_variance", "shape": [256], "dtype": "float32"}, {"name": "stage3_unit5_conv1/kernel", "shape": [1, 1, 1024, 256], "dtype": "float32"}, {"name": "stage3_unit5_conv2/kernel", "shape": [3, 3, 256, 256], "dtype": "float32"}, {"name": "stage3_unit5_conv3/kernel", "shape": [1, 1, 256, 1024], "dtype": "float32"}, {"name": "stage3_unit6_bn1/gamma", "shape": [1024], "dtype": "float32"}, {"name": "stage3_unit6_bn1/beta", "shape": [1024], "dtype": "float32"}, {"name": "stage3_unit6_bn1/moving_mean", "shape": [1024], "dtype": "float32"}, {"name": "stage3_unit6_bn1/moving_variance", "shape": [1024], "dtype": "float32"}, {"name": "stage3_unit6_bn2/gamma", "shape": [256], "dtype": "float32"}, {"name": "stage3_unit6_bn2/beta", "shape": [256], "dtype": "float32"}, {"name": "stage3_unit6_bn2/moving_mean", "shape": [256], "dtype": "float32"}, {"name": "stage3_unit6_bn2/moving_variance", "shape": [256], "dtype": "float32"}, {"name": "stage3_unit6_bn3/gamma", "shape": [256], "dtype": "float32"}, {"name": "stage3_unit6_bn3/beta", "shape": [256], "dtype": "float32"}, {"name": "stage3_unit6_bn3/moving_mean", "shape": [256], "dtype": "float32"}, {"name": "stage3_unit6_bn3/moving_variance", "shape": [256], "dtype": "float32"}, {"name": "stage3_unit6_conv1/kernel", "shape": [1, 1, 1024, 256], "dtype": "float32"}, {"name": "stage3_unit6_conv2/kernel", "shape": [3, 3, 256, 256], "dtype": "float32"}, {"name": "stage3_unit6_conv3/kernel", "shape": [1, 1, 256, 1024], "dtype": "float32"}, {"name": "stage3_unit7_bn1/gamma", "shape": [1024], "dtype": "float32"}, {"name": "stage3_unit7_bn1/beta", "shape": [1024], "dtype": "float32"}, {"name": "stage3_unit7_bn1/moving_mean", "shape": [1024], "dtype": "float32"}, {"name": "stage3_unit7_bn1/moving_variance", "shape": [1024], "dtype": "float32"}, {"name": "stage3_unit7_bn2/gamma", "shape": [256], "dtype": "float32"}, {"name": "stage3_unit7_bn2/beta", "shape": [256], "dtype": "float32"}, {"name": "stage3_unit7_bn2/moving_mean", "shape": [256], "dtype": "float32"}, {"name": "stage3_unit7_bn2/moving_variance", "shape": [256], "dtype": "float32"}, {"name": "stage3_unit7_bn3/gamma", "shape": [256], "dtype": "float32"}, {"name": "stage3_unit7_bn3/beta", "shape": [256], "dtype": "float32"}, {"name": "stage3_unit7_bn3/moving_mean", "shape": [256], "dtype": "float32"}, {"name": "stage3_unit7_bn3/moving_variance", "shape": [256], "dtype": "float32"}, {"name": "stage3_unit7_conv1/kernel", "shape": [1, 1, 1024, 256], "dtype": "float32"}, {"name": "stage3_unit7_conv2/kernel", "shape": [3, 3, 256, 256], "dtype": "float32"}, {"name": "stage3_unit7_conv3/kernel", "shape": [1, 1, 256, 1024], "dtype": "float32"}, {"name": "stage3_unit8_bn1/gamma", "shape": [1024], "dtype": "float32"}, {"name": "stage3_unit8_bn1/beta", "shape": [1024], "dtype": "float32"}, {"name": "stage3_unit8_bn1/moving_mean", "shape": [1024], "dtype": "float32"}, {"name": "stage3_unit8_bn1/moving_variance", "shape": [1024], "dtype": "float32"}, {"name": "stage3_unit8_bn2/gamma", "shape": [256], "dtype": "float32"}, {"name": "stage3_unit8_bn2/beta", "shape": [256], "dtype": "float32"}, {"name": "stage3_unit8_bn2/moving_mean", "shape": [256], "dtype": "float32"}, {"name": "stage3_unit8_bn2/moving_variance", "shape": [256], "dtype": "float32"}, {"name": "stage3_unit8_bn3/gamma", "shape": [256], "dtype": "float32"}, {"name": "stage3_unit8_bn3/beta", "shape": [256], "dtype": "float32"}, {"name": "stage3_unit8_bn3/moving_mean", "shape": [256], "dtype": "float32"}, {"name": "stage3_unit8_bn3/moving_variance", "shape": [256], "dtype": "float32"}, {"name": "stage3_unit8_conv1/kernel", "shape": [1, 1, 1024, 256], "dtype": "float32"}, {"name": "stage3_unit8_conv2/kernel", "shape": [3, 3, 256, 256], "dtype": "float32"}, {"name": "stage3_unit8_conv3/kernel", "shape": [1, 1, 256, 1024], "dtype": "float32"}, {"name": "stage3_unit9_bn1/gamma", "shape": [1024], "dtype": "float32"}, {"name": "stage3_unit9_bn1/beta", "shape": [1024], "dtype": "float32"}, {"name": "stage3_unit9_bn1/moving_mean", "shape": [1024], "dtype": "float32"}, {"name": "stage3_unit9_bn1/moving_variance", "shape": [1024], "dtype": "float32"}, {"name": "stage3_unit9_bn2/gamma", "shape": [256], "dtype": "float32"}, {"name": "stage3_unit9_bn2/beta", "shape": [256], "dtype": "float32"}, {"name": "stage3_unit9_bn2/moving_mean", "shape": [256], "dtype": "float32"}, {"name": "stage3_unit9_bn2/moving_variance", "shape": [256], "dtype": "float32"}, {"name": "stage3_unit9_bn3/gamma", "shape": [256], "dtype": "float32"}, {"name": "stage3_unit9_bn3/beta", "shape": [256], "dtype": "float32"}, {"name": "stage3_unit9_bn3/moving_mean", "shape": [256], "dtype": "float32"}, {"name": "stage3_unit9_bn3/moving_variance", "shape": [256], "dtype": "float32"}, {"name": "stage3_unit9_conv1/kernel", "shape": [1, 1, 1024, 256], "dtype": "float32"}, {"name": "stage3_unit9_conv2/kernel", "shape": [3, 3, 256, 256], "dtype": "float32"}, {"name": "stage3_unit9_conv3/kernel", "shape": [1, 1, 256, 1024], "dtype": "float32"}, {"name": "stage4_unit1_bn1/gamma", "shape": [1024], "dtype": "float32"}, {"name": "stage4_unit1_bn1/beta", "shape": [1024], "dtype": "float32"}, {"name": "stage4_unit1_bn1/moving_mean", "shape": [1024], "dtype": "float32"}, {"name": "stage4_unit1_bn1/moving_variance", "shape": [1024], "dtype": "float32"}, {"name": "stage4_unit1_bn2/gamma", "shape": [512], "dtype": "float32"}, {"name": "stage4_unit1_bn2/beta", "shape": [512], "dtype": "float32"}, {"name": "stage4_unit1_bn2/moving_mean", "shape": [512], "dtype": "float32"}, {"name": "stage4_unit1_bn2/moving_variance", "shape": [512], "dtype": "float32"}, {"name": "stage4_unit1_bn3/gamma", "shape": [512], "dtype": "float32"}, {"name": "stage4_unit1_bn3/beta", "shape": [512], "dtype": "float32"}, {"name": "stage4_unit1_bn3/moving_mean", "shape": [512], "dtype": "float32"}, {"name": "stage4_unit1_bn3/moving_variance", "shape": [512], "dtype": "float32"}, {"name": "stage4_unit1_conv1/kernel", "shape": [1, 1, 1024, 512], "dtype": "float32"}, {"name": "stage4_unit1_conv2/kernel", "shape": [3, 3, 512, 512], "dtype": "float32"}, {"name": "stage4_unit1_conv3/kernel", "shape": [1, 1, 512, 2048], "dtype": "float32"}, {"name": "stage4_unit1_sc/kernel", "shape": [1, 1, 1024, 2048], "dtype": "float32"}, {"name": "stage4_unit2_bn1/gamma", "shape": [2048], "dtype": "float32"}, {"name": "stage4_unit2_bn1/beta", "shape": [2048], "dtype": "float32"}, {"name": "stage4_unit2_bn1/moving_mean", "shape": [2048], "dtype": "float32"}, {"name": "stage4_unit2_bn1/moving_variance", "shape": [2048], "dtype": "float32"}, {"name": "stage4_unit2_bn2/gamma", "shape": [512], "dtype": "float32"}, {"name": "stage4_unit2_bn2/beta", "shape": [512], "dtype": "float32"}, {"name": "stage4_unit2_bn2/moving_mean", "shape": [512], "dtype": "float32"}, {"name": "stage4_unit2_bn2/moving_variance", "shape": [512], "dtype": "float32"}, {"name": "stage4_unit2_bn3/gamma", "shape": [512], "dtype": "float32"}, {"name": "stage4_unit2_bn3/beta", "shape": [512], "dtype": "float32"}, {"name": "stage4_unit2_bn3/moving_mean", "shape": [512], "dtype": "float32"}, {"name": "stage4_unit2_bn3/moving_variance", "shape": [512], "dtype": "float32"}, {"name": "stage4_unit2_conv1/kernel", "shape": [1, 1, 2048, 512], "dtype": "float32"}, {"name": "stage4_unit2_conv2/kernel", "shape": [3, 3, 512, 512], "dtype": "float32"}, {"name": "stage4_unit2_conv3/kernel", "shape": [1, 1, 512, 2048], "dtype": "float32"}, {"name": "stage4_unit3_bn1/gamma", "shape": [2048], "dtype": "float32"}, {"name": "stage4_unit3_bn1/beta", "shape": [2048], "dtype": "float32"}, {"name": "stage4_unit3_bn1/moving_mean", "shape": [2048], "dtype": "float32"}, {"name": "stage4_unit3_bn1/moving_variance", "shape": [2048], "dtype": "float32"}, {"name": "stage4_unit3_bn2/gamma", "shape": [512], "dtype": "float32"}, {"name": "stage4_unit3_bn2/beta", "shape": [512], "dtype": "float32"}, {"name": "stage4_unit3_bn2/moving_mean", "shape": [512], "dtype": "float32"}, {"name": "stage4_unit3_bn2/moving_variance", "shape": [512], "dtype": "float32"}, {"name": "stage4_unit3_bn3/gamma", "shape": [512], "dtype": "float32"}, {"name": "stage4_unit3_bn3/beta", "shape": [512], "dtype": "float32"}, {"name": "stage4_unit3_bn3/moving_mean", "shape": [512], "dtype": "float32"}, {"name": "stage4_unit3_bn3/moving_variance", "shape": [512], "dtype": "float32"}, {"name": "stage4_unit3_conv1/kernel", "shape": [1, 1, 2048, 512], "dtype": "float32"}, {"name": "stage4_unit3_conv2/kernel", "shape": [3, 3, 512, 512], "dtype": "float32"}, {"name": "stage4_unit3_conv3/kernel", "shape": [1, 1, 512, 2048], "dtype": "float32"}]}]}